saved_models/lstm_forecast.pt (torch, 214342 bytes, 13 tensors)

lstm.weight_ih_l0 f4 [256, 1]
000000 02 1c 09 c0 0b aa 31 c0 c4 2d 15 c0 34 75 59 c0
       -2.1423345 -2.7760036 -2.3309183 -3.3977785
000010 63 b6 19 c0 47 73 0a c0 1a 61 ff bf eb 18 14 c0
       -2.401757 -2.163286 -1.9951508 -2.3140209
000020 fc f4 d1 bf 30 f6 e1 bf ed 8b df bf 57 bb fd bf
       -1.6402888 -1.7653255 -1.7464577 -1.9822797
000030 d3 96 23 c0 df f9 01 c0 a5 6c 01 c0 f5 7d 85 bf
       -2.5560806 -2.030876 -2.0222561 -1.0429064
000040 67 7d 0d c0 d6 5f 35 bf 32 c2 47 c0 eb 10 37 c0
       -2.210779 -0.7084936 -3.1212277 -2.8604076
000050 54 e4 df be 6c 32 17 c0 d2 4e 18 c0 31 c5 05 bf
       -0.43728888 -2.3624525 -2.3798108 -0.52254015
000060 a4 dc 35 c0 ae e5 1b c0 dc 14 12 c0 cd 6f 18 c0
       -2.8415918 -2.4358935 -2.2825232 -2.3818238
000070 b5 77 28 c0 13 dd 0e c0 9a 13 45 c0 a0 07 13 c0
       -2.6323063 -2.2322433 -3.0793214 -2.2973404
000080 c9 4a 0e c0 61 c1 34 bf 90 44 c1 bf 41 dc 0c c0
       -2.2233145 -0.7060757 -1.5099049 -2.2009432
000090 c8 06 63 3f 4b 53 24 c0 48 5d 15 c0 08 97 0d c0
       0.8868222 -2.5675838 -2.3338184 -2.2123432
0000a0 d2 bc 11 c0 12 7c 0d c0 5a 23 ab be 35 ea 09 c0
       -2.2771497 -2.2106977 -0.3342541 -2.1549199
0000b0 57 e7 d2 bf 37 4c 07 c0 c3 b1 47 c0 ce 74 eb bf
       -1.6476849 -2.1140268 -3.1202247 -1.8395021
0000c0 23 ba 5e bf bb 99 4a c0 d3 bd 1f c0 64 8a e9 bf
       -0.8700277 -3.165633 -2.495961 -1.8245358
0000d0 01 77 0c c0 7f 7b 56 c0 87 e1 ce bf 8c d0 1b c0
       -2.1947634 -3.3512876 -1.6162575 -2.4346037
0000e0 12 d4 29 c0 02 8c 46 c0 4e c3 43 c0 06 f0 25 c0
       -2.6535687 -3.1022954 -3.0587955 -2.5927749
0000f0 d2 5c 4c c0 5d 73 c2 3c f1 fc 4c 3e df f4 35 c0
       -3.1931653 0.02373665 0.20018364 -2.8430707
000100 e6 54 8b be c5 de 8e bf 6f 44 b9 bf 65 9f ab bf
       -0.2721321 -1.1161734 -1.4474009 -1.3408018
000110 1c 8e ef bd ed 24 33 bf 60 8b b6 bf 91 71 67 be
       -0.11697027 -0.6997822 -1.4261284 -0.22601916
000120 70 ad 0d bf 0e be fb be c2 75 30 bf 7a e1 03 bf
       -0.5534277 -0.49168438 -0.68929684 -0.51515925
000130 ff 0f 23 bf 19 7e 39 bf e0 48 45 bd 2e ab 78 bf
       -0.63696283 -0.72458035 -0.048165202 -0.971362
000140 e0 0f 18 bf 7f 18 5f 3f b6 49 4c c0 4d 5b 53 c0
       -0.59399223 0.87146753 -3.191999 -3.3024476
000150 f0 0e b9 bf 37 76 36 bf b6 b4 92 bf fa 6d 73 3f
       -1.4457684 -0.7127413 -1.1461399 0.95089686
000160 e5 09 53 c0 6b 56 b1 c0 37 89 41 bf ee 14 6c c0
       -3.297479 -5.541799 -0.756 -3.6887774
000170 2d 3e 39 3f 18 f1 2f be 57 43 b0 c0 1c dc 1e 3f
       0.723605 -0.17181814 -5.50822 0.6205461
000180 09 1b e5 be 52 1b c8 c0 55 54 89 3f 3b c4 14 c0
       -0.4474719 -6.253335 1.0728861 -2.324477
000190 94 39 9b c0 2e 52 1f 3f 4f 0f 86 bf f9 b5 ba 3e
       -4.8507786 0.6223477 -1.0473422 0.3646696
0001a0 04 69 28 3f e9 01 e0 3e a6 58 44 40 ef dc e4 be
       0.6578524 0.43751457 3.0679107 -0.4469981
0001b0 4f 8c 8a 3d a7 9e 84 be 74 b4 9d c0 2b ff 0f 3c
       0.06765043 -0.25902292 -4.928278 0.008788864
0001c0 20 06 27 c0 68 dc c8 c0 ee 85 16 c0 99 64 4a bf
       -2.6097488 -6.276905 -2.3519244 -0.7905975
0001d0 0c 81 2f bf 2b e1 89 bf aa 9e fc be ab b9 50 3f
       -0.68556285 -1.0771841 -0.493398 0.81533307
0001e0 aa 25 34 bf 75 15 87 bf 39 18 d3 c0 6e e0 57 bf
       -0.7036997 -1.0553423 -6.596707 -0.8432683
0001f0 6a e8 a9 bf a0 12 19 40 72 59 bb 3f 81 f1 87 bf
       -1.3274052 2.3917618 1.4636672 -1.0620576
000200 51 f2 92 bf c6 9b 75 3f c2 89 a1 bf a4 0d 41 bf
       -1.1480199 0.95940816 -1.2620165 -0.7541144
000210 9e f4 ad 3f f1 73 95 bf 68 93 9e 3f 47 ca 3f bf
       1.3590276 -1.1676008 1.2388735 -0.74918026
000220 7a 20 56 bf 23 41 9f be 7b b2 a5 bd ef 97 cf 3f
       -0.83643305 -0.31104383 -0.08090683 1.6218241
000230 6b 41 54 3f 20 bc ac 3f 96 04 88 bf 0e 83 55 bf
       0.8291232 1.3494911 -1.06264 -0.834031
000240 22 20 59 bf e2 bd c8 bf 32 0c b1 bf 9f a6 9c bf
       -0.84814656 -1.5682948 -1.3831847 -1.2238349
000250 00 a4 ae 3f b8 40 dc 3e 7e 2c 91 bf 4d e1 d2 3f
       1.3643799 0.43018126 -1.1341703 1.6475006
000260 59 37 a7 3f d0 10 b3 3f 2a 92 da 3e 26 82 be bf
       1.3063766 1.3989506 0.4268964 -1.4883468
000270 3f 46 ae bf 7f cb 87 bf 66 a1 aa bf 75 c1 78 be
       -1.3615187 -1.0608977 -1.3330505 -0.24292548
000280 a2 d5 68 3f 9b 70 eb bf 5f 8e 53 bf c0 02 b7 3f
       0.9095098 -1.839374 -0.82639116 1.4297714
000290 a6 3b 06 40 c0 28 82 bf a8 db a4 3f 56 6b b3 3f
       2.0973907 -1.0168686 1.2879534 1.4017131
0002a0 56 95 a8 bf 0d 80 be bf fb 7c c8 3f 54 45 c5 bd
       -1.3170574 -1.4882828 1.5663141 -0.09632364
0002b0 39 a7 b5 3f b4 72 8c 3f 56 e0 b2 3f 2e d7 a9 bf
       1.4191657 1.0972505 1.3974712 -1.3268793
0002c0 f9 11 14 c0 66 5b 78 bf 54 12 af bf e3 52 e8 bd
       -2.313597 -0.9701446 -1.3677468 -0.113439344
0002d0 af 4a 45 bf a4 8d df bf b6 a7 29 3e 89 93 b3 bf
       -0.77067083 -1.74651 0.16567883 -1.4029399
0002e0 0d 1b de 3e 4a e0 b3 3f 4b 5a ae bf 5b 4c a5 3f
       0.43380013 1.4052823 -1.3621305 1.2913927
0002f0 34 db d1 bf f3 11 ce 3f 6f ae f2 3f 23 df b4 bf
       -1.639502 1.6099228 1.8959483 -1.4130596
000300 13 c9 ef bf 90 bd 32 c0 8b 71 0a c0 b2 5a 52 c0
       -1.8733238 -2.79282 -2.16318 -3.2867856
000310 34 c5 04 c0 c2 3f 14 c0 51 65 02 c0 b2 a1 0a c0
       -2.0745363 -2.3163915 -2.0374339 -2.166119
000320 ab b9 ce bf c0 d4 d4 bf c2 8c dd bf 78 99 cf bf
       -1.6150411 -1.6627426 -1.7308581 -1.621871
000330 4c 1d 16 c0 ce d0 06 c0 0f 13 de bf be 8d 87 bf
       -2.3455381 -2.1064944 -1.7349566 -1.0590131
000340 02 97 e7 bf dc c9 18 bf 27 40 51 c0 83 77 32 c0
       -1.8092959 -0.5968301 -3.2695405 -2.7885444
000350 24 34 05 bf b2 93 08 c0 d2 1a fe bf b7 5c e1 bf
       -0.52032685 -2.1340146 -1.9851935 -1.7606419
000360 f4 ea 49 c0 33 16 23 c0 13 25 02 c0 77 f0 31 c0
       -3.1549654 -2.54823 -2.0335128 -2.7803018
000370 87 a3 cc bf 31 66 e8 bf bd 39 55 c0 3e dc e9 bf
       -1.5987405 -1.8156186 -3.331649 -1.8270338
000380 78 c0 e4 bf b8 a5 f6 be f5 79 ab bf c9 3f 1b c0
       -1.7871237 -0.48173308 -1.3396593 -2.4257681
000390 0f 15 65 3f c3 d1 13 c0 ab f2 14 c0 c3 6f e0 bf
       0.8948526 -2.3096778 -2.3273113 -1.7534107
0003a0 88 4c b4 bf 13 52 d9 bf 3b 17 a3 bf 9a e3 01 c0
       -1.4085855 -1.6978172 -1.2741464 -2.0295167
0003b0 bd 83 b8 bf 25 f0 ea bf 63 6f 5f c0 9a 63 aa bf
       -1.4415203 -1.8354536 -3.4911735 -1.3311646
0003c0 75 02 18 bf e1 ea 60 c0 9e b9 01 c0 05 68 e8 bf
       -0.5937875 -3.5143359 -2.0269542 -1.8156744
0003d0 d3 ae 03 c0 cf 61 47 c0 d5 c1 d8 bf 62 05 34 bf
       -2.0575454 -3.1153448 -1.6934153 -0.70320714
0003e0 1a 00 1f c0 98 ad 31 c0 8e 4e 52 c0 dd 26 20 c0
       -2.4843812 -2.7762203 -3.2860446 -2.502372
0003f0 b3 e8 41 c0 cd 01 02 40 eb ec 2c 3f 1f 91 14 c0
       -3.0298278 2.03136 0.6754901 -2.3213575

lstm.weight_hh_l0 f4 [256, 64]
000000 1c db e3 bc 6e c9 23 3e b6 0a b5 bd ca 4e 40 3d
       -0.02781444 0.15994808 -0.088399336 0.04695014
000010 bb 6f ad bd 4e d8 2c 3d 53 a5 14 3c 1b 32 3b 3d
       -0.084685765 0.04219847 0.0090726195 0.04570208
000020 92 ac 5e be 00 8d 88 3d 6e ba b1 3c 05 41 e2 3d
       -0.21745518 0.066675186 0.021695342 0.11047558
000030 21 e8 e6 3d 15 dc b4 bd 27 25 b6 3d 1b 8d 3d 3e
       0.11274744 -0.0883104 0.08893805 0.18510859
000040 9e ce dd 3d 14 7b 18 bf 16 00 1e 3b 00 97 3d bd
       0.10830425 -0.595628 0.0024108938 -0.046286583
000050 cd 97 16 bd 94 50 14 be 46 9f 19 3e ef 66 69 be
       -0.036765862 -0.14483863 0.15002164 -0.22793172
000060 6f fe 30 3e ad b5 4d 3e 6a 39 0a be 48 c0 ff bd
       0.17284559 0.20088835 -0.13498464 -0.124878466
000070 e8 fd 28 be 21 56 a6 3d 9b 37 63 bd a5 1a 2e be
       -0.16503108 0.081218965 -0.05547295 -0.17002352
000080 bd cc dd 3a 9c f7 e2 3e ee 2d 97 3e 28 3c 1e 3e
       0.0016921979 0.44329536 0.2952723 0.15452635
000090 e8 27 2e 3f 57 6c 37 3d e5 ea 01 3e c7 d8 35 bd
       0.6802964 0.044781055 0.12687261 -0.044396188
0000a0 d4 b0 99 3d 0f 4a ee be 84 10 0e 3f 06 99 a8 bd
       0.075044304 -0.46540877 0.5549395 -0.08232312
0000b0 54 b3 75 3e d4 a9 15 be 5d 23 dd 3d 11 35 07 bd
       0.2399419 -0.14615566 0.10797761 -0.033009592
0000c0 af 8b b2 bc 23 ea 84 be 3c 28 d9 bd fd f6 d8 3d
       -0.021795122 -0.25959882 -0.10603377 0.10593984
0000d0 11 81 a7 bd 59 d1 bf bd f1 60 7b bd be cc b6 bd
       -0.08178914 -0.09366102 -0.061371747 -0.0892577
0000e0 f3 96 97 bd 9c 11 97 be 16 8d 17 be d9 09 83 bd
       -0.07401838 -0.29505622 -0.14799914 -0.06398363
0000f0 fc ca 00 bd 85 79 eb 3e 07 dc 18 40 43 0e 0e 3e
       -0.03144358 0.4599115 2.3884294 0.13872628
000100 45 8b 97 bd f2 8f eb 3d f3 cd a9 bd 86 93 45 bd
       -0.073996104 0.11502065 -0.08291235 -0.048236392
000110 97 de 2e be c9 23 f0 bc b1 1b 4f 3d 84 d2 b4 3d
       -0.17077099 -0.029313939 0.050563518 0.08829215
000120 19 01 3f bd db 3d d2 3d 54 ad 21 3e a1 1b 8a 3e
       -0.046631906 0.10265704 0.15788776 0.26974204
000130 5d 98 f2 3d 25 7a 8f bc 7d 5d f1 3d c0 a5 59 bd
       0.11845467 -0.017514298 0.117854096 -0.053136587
000140 97 ba 88 3d 91 e6 00 bf 1e 83 36 be 33 16 51 bd
       0.06676214 -0.50351816 -0.17823455 -0.05104656
000150 b2 14 45 3d 0c 80 0f 3d 32 5e a0 3d f0 04 c1 3e
       0.04811544 0.035034224 0.07830466 0.3769908
000160 7f 1e 11 3e ae 09 4c 3d 60 8f 2e be 6b 6e 2c be
       0.1417179 0.04981392 -0.1704688 -0.16838996
000170 d2 d6 e3 bd 63 97 9d 3d 2a 49 d9 bd 0c 42 48 3d
       -0.11124958 0.0769489 -0.10609658 0.048891112
000180 52 ca 06 be 21 32 c6 bc 14 b1 a1 3c 00 30 d8 3e
       -0.13163117 -0.024193825 0.019737758 0.4222412
000190 c5 8a 18 3f 1a f2 b8 3d f9 f0 53 3c 74 94 41 bc
       0.59586746 0.09030552 0.01293587 -0.011815179
0001a0 14 af 85 bd bb 0e 80 be 58 8c 5b 3f 04 97 16 bb
       -0.06527534 -0.25011238 0.8576102 -0.0022978196
0001b0 b3 56 11 3e a9 00 87 bd 12 df d1 3d 89 22 07 3d
       0.1419323 -0.06591923 0.102476254 0.03299192
0001c0 80 56 d9 3b 7f af ac be c5 bd cb 3d d4 0f 47 3e
       0.006632626 -0.33727643 0.09948305 0.19439632
0001d0 87 99 eb 3d 2f 10 0f 3d 19 18 1d bd 7e 49 08 be
       0.115038924 0.034927543 -0.03835306 -0.13309285
0001e0 56 43 f2 bc cf c5 c1 3b 5f e9 15 be 0a 2a 8f bd
       -0.029573124 0.005913473 -0.14639805 -0.0699044
0001f0 83 a0 a3 bd 40 3e 34 3f 55 f5 61 3f 9e b1 30 3d
       -0.079895996 0.70407486 0.8826497 0.04313814
000200 2e f0 17 bd d4 c4 35 3e 85 31 62 be e5 e3 1c be
       -0.037094288 0.17750865 -0.22089203 -0.1532131
000210 b8 d1 d8 3d d0 79 9b 3d 48 fd 08 3e 51 28 88 3d
       0.10586876 0.07591593 0.13377869 0.06648315
000220 db e5 68 bd 75 b7 39 3c 88 12 23 bd 2a 29 c5 3e
       -0.056859832 0.0113352435 -0.039812595 0.38507968
000230 78 90 d8 3d 22 c4 c8 3d 1a 94 2a bd ea 33 36 3d
       0.1057443 0.09803034 -0.041645147 0.044483103
000240 9a 2f 88 3d 0b 1f ac bf b7 13 07 be 03 e7 3c be
       0.06649704 -1.3446974 -0.13191114 -0.18447499
000250 01 48 60 bd b7 72 09 bd 20 7a a2 bd 18 3f 83 be
       -0.05475617 -0.033556666 -0.0793345 -0.25634074
000260 18 38 71 3c 43 32 bf 3e a9 e3 0f be 8b 0d 9d bd
       0.014722846 0.37343034 -0.14051689 -0.07668599
000270 ec d2 18 be f9 4f 93 bc ad 68 5a be 6b 3f 48 be
       -0.1492421 -0.01798247 -0.21328993 -0.19555442
000280 dd da 61 3c 16 62 61 3f c9 df fa 3e 25 9c 0b 3d
       0.013785091 0.8804029 0.4899886 0.034084458
000290 c1 16 20 3f fa 39 93 bc 65 54 3f 3e d3 a1 6c 3e
       0.6253472 -0.017971981 0.18684538 0.23108606
0002a0 99 fa 72 be cf 29 c7 be dd 60 1c 3f 2a 8f 36 bc
       -0.23728408 -0.38899085 0.610853 -0.011142531
0002b0 70 a5 9b 3e db cf 13 bc b1 ce 3f 3c 63 14 25 be
       0.30399656 -0.009021725 0.011706994 -0.16121058
0002c0 d6 82 52 be ed 79 ac be 21 ac 07 be d4 73 33 3d
       -0.20557722 -0.33686772 -0.13249256 0.043811634
0002d0 8e a2 9b bd bd c8 dc be 3a eb 2b 3d 94 48 83 be
       -0.07599364 -0.431219 0.041972376 -0.2564131
0002e0 d3 e3 53 3c 1b fc 42 3e 56 37 ff bd 84 31 b0 3d
       0.0129327355 0.19041483 -0.12461726 0.08603194
0002f0 06 22 61 be 68 b4 3a 3f 6e 5e 5a 40 02 a8 07 3e
       -0.21985635 0.7293153 3.4120135 0.13247684
000300 7c e0 f2 3d e0 73 e5 3d 3d 2c ec 3d 77 99 68 bd
       0.11859223 0.11203742 0.11531875 -0.05678698
000310 6a a3 26 be d4 75 eb bc e7 2e 1f 3e 17 8a 89 3e
       -0.16273275 -0.028742708 0.15545236 0.26863167
000320 3e 9a 5d 3e 6d 95 2a 3e 48 63 4b 3e f5 74 3b 3d
       0.2164087 0.16658564 0.19862092 0.045765836
000330 67 ee 8a 3e 9a d8 1d be 82 be 0b 3e 5d eb 50 3d
       0.27135012 -0.15414658 0.13646892 0.05100571
000340 be 02 fa 3d e4 e0 0a bf 5b 5f 87 be 20 f7 e1 3c
       0.12207554 -0.54249406 -0.26439938 0.027583659
000350 48 b1 81 3e 74 27 3e be cd 94 53 3e e9 1a 0b 3f
       0.25330567 -0.18569738 0.20662232 0.54337937
000360 6b 41 92 3e 1d f9 78 3e 00 d1 b1 be d1 c6 ae be
       0.28565535 0.24313779 -0.34729767 -0.3413606
000370 52 a5 c9 bd 63 ee 36 3e d8 a2 cb be be a1 e1 bd
       -0.098459855 0.17864375 -0.39772677 -0.11017178
000380 aa 7e 65 be 30 ec 78 3a 54 b3 41 3e 66 02 7f 3d
       -0.224116 0.0009495644 0.18916065 0.062258147
000390 43 e5 e7 3e ed 7d cf 3d 0e ee 14 3e 78 07 88 bd
       0.452921 0.1013144 0.14543936 -0.066420496
0003a0 67 91 6a 3e ba 87 58 be 58 71 5c 3f dc af 64 be
       0.22907029 -0.21145526 0.8611045 -0.2233271
0003b0 66 55 0f be 70 bd 95 be a4 7f 49 3e 7e 25 6b 3e
       -0.1399742 -0.29246092 0.19677597 0.22963521
0003c0 5c 1d 94 be 9a e3 3b be 63 c5 12 3e c8 01 66 3d
       -0.2892865 -0.18348542 0.1433311 0.056154042
0003d0 f5 21 af 3e a2 2e d1 bd 32 5f 36 bd ae 55 c6 3d
       0.34205595 -0.10213973 -0.04452438 0.09684311
0003e0 cb 71 5d bd f7 ed 24 be 06 4a 22 be 3d f9 7e bc
       -0.0540636 -0.16106401 -0.1584855 -0.015562353
0003f0 c3 cf 7e 3d 5f 1d 37 3f b4 f2 6b 3f 77 fe 75 3e
       0.062209856 0.7152919 0.9216721 0.24022852

lstm.bias_ih_l0 f4 [256]
000000 9b 96 fa bf e1 a7 f7 bf 14 f1 ee bf f7 40 d0 bf
       -1.9577211 -1.9348108 -1.8667321 -1.6269826
000010 a7 6b f1 bf 20 23 02 c0 a9 66 eb bf b9 8c 04 c0
       -1.8860978 -2.0333939 -1.8390704 -2.071089
000020 a1 1d 15 c0 f3 b7 0d c0 5b f4 0b c0 b2 0d bd bf
       -2.3299334 -2.2143524 -2.1867893 -1.4769804
000030 6a 4c fd bf dc 25 ea bf 1f 54 fd bf 7e 51 17 c0
       -1.9788945 -1.8292804 -1.9791297 -2.364349
000040 14 ef 0e c0 dd c9 55 bf 78 ce 51 bf 2f 16 a7 bf
       -2.2333422 -0.83511144 -0.8195567 -1.3053645
000050 fc 46 13 c0 83 4d 08 c0 58 95 dd bf 00 77 a9 3e
       -2.3012075 -2.129731 -1.7311201 0.33098602
000060 f8 99 96 bf e9 f6 38 bf 11 c2 0d c0 3d f3 8c bf
       -1.1765738 -0.72251755 -2.2149699 -1.101173
000070 d9 3e f1 bf e3 8b 03 c0 67 cf 2a bf ab 8d 05 c0
       -1.8847305 -2.055413 -0.6672272 -2.0867717
000080 11 3b 0e c0 cd 1c 2a bf d2 05 72 bf a5 b0 94 bf
       -2.2223551 -0.66450197 -0.9454013 -1.1616408
000090 0d 0b ec 3f db dd 02 c0 28 9a df bf 19 82 c2 bf
       1.8440872 -2.044791 -1.746892 -1.5195953
0000a0 f9 aa dd bf 4e 32 84 bf cc de d1 bf 4f 57 08 c0
       -1.7317802 -1.0327852 -1.6396117 -2.130329
0000b0 06 8e c3 bf 16 de 00 c0 1e 2e 5a bf ac 03 dc bf
       -1.5277717 -2.013555 -0.8522662 -1.718862
0000c0 91 a1 b8 bf 18 99 70 bf af fd a0 bf 6d 13 11 c0
       -1.4424306 -0.939836 -1.2577418 -2.2668107
0000d0 a9 95 07 c0 3a 9a 13 bf 49 e0 0a c0 9a f2 cc bf
       -2.1185095 -0.57657206 -2.1699393 -1.6011536
0000e0 1e 59 03 c0 1b 4a f4 bf 53 6d 7a bf b3 cb 02 c0
       -2.0523143 -1.9085115 -0.97823066 -2.0436828
0000f0 1b d7 d8 bf b8 4b 83 bf 08 60 94 bf 0c 43 f3 bf
       -1.6940645 -1.0257483 -1.1591806 -1.9004836
000100 13 c5 2f bf 8c 91 29 bf e3 89 57 bf 48 bb 88 bf
       -0.68660086 -0.6623771 -0.84194773 -1.0682154
000110 51 7c e3 be db f7 37 bf 8d 49 4b bf ab ea 0c bf
       -0.44430783 -0.7186257 -0.79409105 -0.55045575
000120 22 7c 49 bf 66 51 30 bf c4 7f 6c bf 6f 4b 55 bf
       -0.78705037 -0.68874204 -0.92382455 -0.8331823
000130 44 2b 2a bf a8 08 11 bf e9 09 29 bf 18 92 8e bf
       -0.6647227 -0.56653833 -0.66030747 -1.1138334
000140 b0 e3 48 bf 62 45 95 3f 6f 95 bb be a1 03 61 bf
       -0.78472424 1.1661799 -0.36637446 -0.8789616
000150 01 17 c6 bf 46 87 40 bf 30 f7 80 bf 3f 06 a8 3f
       -1.547577 -0.7520641 -1.0075436 1.3126906
000160 8b b8 14 bf dd 13 13 bf 7c 93 51 bf d3 fc b5 be
       -0.5809409 -0.57452184 -0.8186567 -0.35544452
000170 7c 12 b6 3e 9a 9d 30 bf c8 b2 84 be 20 8e 6a 3e
       0.35560977 -0.6899048 -0.2591765 0.22905779
000180 8e c9 2f bf 13 bd b5 be 04 26 8d 3f 10 6f d5 be
       -0.68666923 -0.35495815 1.1027226 -0.41686296
000190 99 3c f9 be 8d 14 99 3e b6 de de be 2e 3b b1 3e
       -0.48679045 0.29898492 -0.4352929 0.34615463
0001a0 34 e9 8b bd 9b f6 a7 3e 5f 79 14 40 22 4e 0f bf
       -0.06831589 0.32805333 2.319908 -0.55978596
0001b0 85 e9 c8 be c6 58 fb be 0f 00 d6 be 4e a5 01 bf
       -0.3924066 -0.49091166 -0.4179692 -0.5064286
0001c0 af a4 26 c0 99 7f a9 be e5 dd b4 bf 64 99 70 bf
       -2.6038015 -0.33105162 -1.4130217 -0.93984056
0001d0 47 15 61 bf 34 c0 75 bf 24 d8 44 bf ef 00 82 3e
       -0.8792309 -0.95996404 -0.76892304 0.25391337
0001e0 1f 90 0e bf 80 4c 6d bf be da d4 be c5 61 70 bf
       -0.5568866 -0.92694855 -0.41573137 -0.93899184
0001f0 e7 d5 d8 bf 90 af 3b 3f 50 b7 db bf 08 b8 3f bf
       -1.6940278 0.7331476 -1.7165318 -0.74890184
000200 eb 9c 96 3e de d5 0a bf a1 e8 91 3e 9b 9f 6c 3f
       0.29416594 -0.54232585 0.28497794 0.9243104
000210 89 3e b3 be c4 bc c8 3e 7f f1 bb be db 8d 8b 3e
       -0.35008648 0.39206517 -0.36707684 0.27256665
000220 9a 3c 8e 3e 39 9e e6 3d 94 0f 8f bc e5 c0 93 be
       0.2778061 0.11260647 -0.017463483 -0.28858104
000230 1e 51 96 be 4f ea e3 be 11 c5 90 3e 1e b2 5f 3e
       -0.29358763 -0.445147 0.2827535 0.2184529
000240 ea 03 6a 3e c6 2d e3 3e 92 b6 11 3f 02 c5 6c 3e
       0.22853056 0.4437086 0.56919205 0.23122028
000250 2e 1e f6 be d5 0e c4 bd cd 3f 89 3e ea 5e ba be
       -0.480699 -0.095731415 0.2680649 -0.3640054
000260 19 f2 26 bf a6 5d b0 be 3d 27 e8 bc 18 32 09 3f
       -0.6521316 -0.34446448 -0.028339023 0.5359206
000270 8b b3 c4 3e a9 98 cd 3e d8 dc 59 3f 05 79 51 bd
       0.3841823 0.40155533 0.85102606 -0.051140804
000280 6b f6 78 be 97 30 12 3f ad ce 2e 3e f5 1b 09 bf
       -0.24312751 0.5710539 0.17071028 -0.53558284
000290 06 75 11 bf 52 d0 a2 3e 80 85 d8 be 28 2c ba be
       -0.5681919 0.3179956 -0.42289352 -0.36361814
0002a0 b5 ca e4 3e 13 f8 b7 3e 3b 6d 3b bf d1 cd 98 3c
       0.44685903 0.35931453 -0.7321355 0.018652828
0002b0 46 ff bd be c2 c1 99 be 86 86 39 bf 4b 5d e3 3e
       -0.3710882 -0.30030638 -0.7247089 0.44407114
0002c0 5b 50 22 3f 9c 18 94 3f 63 dc bf 3e 00 bc 70 3d
       0.6340386 1.157001 0.3747283 0.05877304
0002d0 41 49 16 3e 81 7f 48 3e 54 43 49 bd b8 5d d7 3e
       0.14676382 0.19579889 -0.049136475 0.4206369
0002e0 a2 8c 47 be c1 13 a2 be db 55 2e 3f 8d c0 6f be
       -0.19487241 -0.31655696 0.68099755 -0.23413296
0002f0 93 80 50 3e 10 ec 39 bf cb f3 35 bf b8 71 89 3e
       0.20361547 -0.7262583 -0.71075124 0.26844573
000300 3a 7e f7 bf 49 23 f9 bf 75 0b d3 bf 12 46 c7 bf
       -1.9335396 -1.9463893 -1.6487871 -1.5568259
000310 70 a9 d7 bf 43 03 07 c0 b2 7f fb bf 92 60 00 c0
       -1.6848583 -2.109574 -1.9648345 -2.0058942
000320 89 fb 16 c0 96 63 0b c0 df 4c 09 c0 1a 81 bc bf
       -2.3591025 -2.1779532 -2.1453168 -1.4726899
000330 32 42 01 c0 d3 c3 d8 bf 84 e9 00 c0 bf 6c 16 c0
       -2.0196652 -1.6934761 -2.0142527 -2.3503873
000340 17 bb 06 c0 46 e5 3e bf bf d3 60 bf 12 66 ab bf
       -2.105169 -0.74568594 -0.878231 -1.3390524
000350 1e b5 14 c0 92 7c 04 c0 11 b9 cd bf 7f ee 22 be
       -2.3235545 -2.0701032 -1.6072103 -0.15911292
000360 d1 d8 9c bf 67 45 6e bf a9 f0 05 c0 ce e6 92 bf
       -1.2253667 -0.9307465 -2.0928137 -1.1476686
000370 e1 77 db bf 83 70 02 c0 ee 0d 22 bf ec 4d fe bf
       -1.7145959 -2.0381172 -0.63302505 -1.986753
000380 63 ce 02 c0 94 23 ab be 6e 17 81 bf 05 98 9f bf
       -2.0438468 -0.3342558 -1.0085275 -1.2468268
000390 42 b6 0e 40 8d 9d f4 bf f5 f4 db bf 3d 18 c1 bf
       2.2298741 -1.9110581 -1.718413 -1.5085522
0003a0 76 4a e2 bf f7 2b 78 bf 90 d0 bc be b2 95 06 c0
       -1.7678974 -0.96942085 -0.3687787 -2.1028867
0003b0 16 00 c5 bf 20 6d f8 bf 7d 62 69 bf b8 0a db bf
       -1.5390651 -1.9408302 -0.91165906 -1.7112646
0003c0 2b 63 a5 bf 75 8d 51 bf 07 90 89 bf 35 5c 0d c0
       -1.2920889 -0.8185647 -1.0747079 -2.2087529
0003d0 51 be 0f c0 44 be 12 bf 69 e2 09 c0 34 b9 d9 bf
       -2.245991 -0.5732157 -2.154444 -1.7009645
0003e0 7d e2 fd bf 93 6b ec bf 47 88 42 bf 3b 3e 04 c0
       -1.9834744 -1.8470329 -0.7598919 -2.0662982
0003f0 1b 4f c1 bf bf 2f 16 bf 68 b2 4e bf ba 81 dd bf
       -1.5102266 -0.58666605 -0.80740976 -1.7305214

lstm.bias_hh_l0 f4 [256]
000000 0e de fd bf d4 2a e5 bf 0a 4f ed bf f1 f6 d8 bf
       -1.9833391 -1.7903695 -1.8539746 -1.695036
000010 53 31 de bf 8b 5d ff bf 45 60 fd bf 3b 41 08 c0
       -1.7358803 -1.9950422 -1.9795004 -2.1289814
000020 93 dd 10 c0 75 db 09 c0 56 81 14 c0 c2 e4 b5 bf
       -2.2635238 -2.1540196 -2.320394 -1.4210436
000030 4d 30 ec bf 42 d6 d6 bf ff 19 04 c0 a2 25 11 c0
       -1.845224 -1.6784136 -2.0640867 -2.267922
000040 17 11 09 c0 cb 1c 68 bf d3 b4 45 bf fb 2c ac bf
       -2.141668 -0.90668935 -0.7722904 -1.3451227
000050 fc 98 1a c0 ac 8f 07 c0 ca e3 e1 bf 1e 35 a1 3e
       -2.4155874 -2.118144 -1.7647641 0.31485838
000060 83 16 9c bf d0 1a 37 bf e4 af 12 c0 6c 3c 92 bf
       -1.219437 -0.7152529 -2.2919855 -1.1424689
000070 fb b0 eb bf 84 61 02 c0 e4 44 19 bf bc 09 08 c0
       -1.8413385 -2.037202 -0.59870744 -2.1255941
000080 46 37 01 c0 96 42 34 bf cd db 4c bf 2e 81 98 bf
       -2.0189986 -0.704141 -0.8002289 -1.1914423
000090 08 28 df 3f 5b d0 06 c0 46 3c d7 bf 1a d1 cd bf
       1.7434092 -2.106467 -1.6815269 -1.6079438
0000a0 4b d4 de bf 65 fe 80 bf e3 62 e0 bf ab 10 0d c0
       -1.7408537 -1.0077635 -1.7530178 -2.2041423
0000b0 e9 4f b8 bf a6 03 0c c0 38 f5 5e bf 04 1f ea bf
       -1.4399387 -2.1877227 -0.87092924 -1.8290715
0000c0 cf de c0 bf 95 6b 4e bf 63 25 99 bf e8 af 0d c0
       -1.5067996 -0.8063291 -1.1964535 -2.2138615
0000d0 4d 6a 09 c0 3a 91 f6 be 94 27 07 c0 82 88 de bf
       -2.147113 -0.48157674 -2.1117907 -1.7385409
0000e0 49 60 07 c0 ee ca ee bf 89 02 6d bf 0f 0b 08 c0
       -2.1152518 -1.8655679 -0.92581993 -2.125675
0000f0 ec db da bf da 57 8c bf 33 30 87 bf a1 c8 e3 bf
       -1.7098365 -1.096431 -1.0561584 -1.7795602
000100 6a 51 f2 be c7 92 2f bf 1e 31 50 bf 05 f8 82 bf
       -0.4732774 -0.6858334 -0.81324947 -1.023194
000110 4a 53 c4 be 05 89 2b bf c6 a9 5a bf 1a f5 cf be
       -0.38344795 -0.6700595 -0.85415304 -0.40616685
000120 d4 81 80 bf d2 7d 17 bf 86 a0 6f bf 9d 05 6a bf
       -1.003962 -0.5917636 -0.93604314 -0.91414815
000130 01 cf 28 bf 7f c3 20 bf 04 c6 ea be c6 e2 87 bf
       -0.6594086 -0.62798303 -0.458542 -1.0616081
000140 5c c6 60 bf b7 ef b3 3f dc 23 63 be b0 22 51 bf
       -0.8780267 1.405753 -0.22181648 -0.81693554
000150 50 35 cc bf e6 79 7a bf d7 51 6d bf 47 82 a0 3f
       -1.595377 -0.9784225 -0.92703 1.2539757
000160 b9 6a 04 bf 8f 5c e8 be b8 f1 74 bf ed 75 f0 be
       -0.51725346 -0.45383117 -0.95681334 -0.4696497
000170 51 de c0 3e 2d 8e 22 bf 0e 70 ed be 55 25 df 3e
       0.37669614 -0.63498193 -0.46374553 0.4358317
000180 06 f5 27 bf ff 75 7e be 7c 2a 66 3f 0d 4d c0 be
       -0.6560825 -0.248497 0.89908576 -0.37558785
000190 c1 b5 12 bf f4 58 14 3e ea b9 da be 9d 4e 02 3e
       -0.57308584 0.14487058 -0.42719966 0.12725301
0001a0 d6 b5 85 3d 07 22 f2 3e 43 c3 16 40 55 ea 17 bf
       0.06528823 0.47291586 2.3556678 -0.5934194
0001b0 40 13 f2 be 91 fa 21 bf fe 37 b0 be 17 8c 19 bf
       -0.47280312 -0.6327296 -0.3441772 -0.59979385
0001c0 54 6b 2a c0 a8 e9 dd be dc 00 c7 bf 38 dd 58 bf
       -2.6628008 -0.43342328 -1.5547137 -0.84712553
0001d0 3e 6c 59 bf e1 4f 5b bf c4 25 38 bf 9e 1b b2 3e
       -0.8493079 -0.8566876 -0.71932626 0.34786695
0001e0 3f 3b 39 bf f7 0a 64 bf 78 bf df be c0 ea 55 bf
       -0.7235603 -0.8907923 -0.43700767 -0.83561325
0001f0 59 90 dc bf 55 8c 31 3f d0 3e d2 bf 82 4e 43 bf
       -1.7231551 0.69354755 -1.6425419 -0.7629167
000200 d8 b9 ad 3e 54 3d 01 bf b1 dc d0 3e 14 56 80 3f
       0.3393085 -0.50484204 0.40793374 1.0026269
000210 40 c1 e5 be 13 d6 31 3e 2e 35 c8 be b9 5d 2b 3e
       -0.44874 0.17366819 -0.39103073 0.16734971
000220 fb 12 71 3e 9d 06 d8 3d 9c 5c 55 3c 57 9c cf be
       0.23542397 0.105481364 0.013022568 -0.40548965
000230 ad d4 85 be d5 bc cf be 69 16 a4 3e 33 fd ad 3e
       -0.2613882 -0.40573755 0.32048348 0.33982238
000240 df d1 31 3e e9 b8 d3 3e 7d 43 44 3f 19 23 e3 3e
       0.17365216 0.41352013 0.7666548 0.44362715
000250 2d 04 af be a4 0b 62 bd 7a 9e 8c 3e 34 ab 0d bf
       -0.34182873 -0.055186883 0.27464658 -0.5533936
000260 b8 10 13 bf d2 a9 7b be 27 c5 17 be 7f 1f 06 3f
       -0.57447386 -0.245765 -0.14821301 0.5239181
000270 d5 07 de 3e 47 39 53 3e 89 43 7e 3f b4 19 d7 bc
       0.4336535 0.20627318 0.993218 -0.026257373
000280 7f 96 95 be f4 8c f1 3e f2 20 45 3e d2 58 c0 be
       -0.29216382 0.4717785 0.19250849 -0.37567765
000290 ed b3 20 bf 01 fa df 3e a9 c8 c3 be b9 f4 da be
       -0.62774545 0.43745425 -0.3823903 -0.42764834
0002a0 22 db a0 3e 11 12 ec 3e 6b e0 0a bf 48 7b 80 3c
       0.31417185 0.46107534 -0.54248685 0.015683785
0002b0 2d c4 f5 be 58 f5 98 be a9 77 42 bf 24 19 c9 3e
       -0.48001233 -0.29874682 -0.75963837 0.39276993
0002c0 65 8e 2f 3f 54 a2 77 3f 11 d3 9b 3e f6 e5 20 3c
       0.6857665 0.9673207 0.30434468 0.009820452
0002d0 2f 30 35 3e a7 5f 82 3e 8b e5 8b bd 67 8a 08 3f
       0.17694162 0.25463602 -0.06830891 0.53336185
0002e0 17 f1 90 bd 6b bb 47 be 0f d4 42 3f 7e b4 73 be
       -0.07077234 -0.19505088 0.76104826 -0.23799321
0002f0 08 d4 70 3e e6 93 0c bf a6 98 29 bf e0 98 b8 3e
       0.23518384 -0.54913175 -0.6624855 0.36054134
000300 af 65 f3 bf 0a 69 e9 bf d7 f8 d9 bf 2f 8e c0 bf
       -1.9015406 -1.823518 -1.7029065 -1.5043391
000310 ef aa d3 bf 8e 1f 0c c0 e6 60 ef bf 00 07 07 c0
       -1.653654 -2.189426 -1.8701446 -2.1098022
000320 df 61 0c c0 f4 ab 08 c0 92 cd 0d c0 69 92 b2 bf
       -2.1934736 -2.1354952 -2.215672 -1.3950931
000330 78 05 eb bf 44 91 d8 bf d2 7b fc bf 9d 77 16 c0
       -1.8361044 -1.6919332 -1.9725287 -2.3510506
000340 9f ac 05 c0 ef 91 3a bf ec c5 47 bf ce 30 9e bf
       -2.088661 -0.72878927 -0.7803638 -1.2358644
000350 e8 6d 17 c0 82 22 02 c0 ee 4d d6 bf e0 be 82 be
       -2.3660831 -2.0333562 -1.6742532 -0.2553625
000360 0f cb 91 bf 47 93 36 bf 1e 6b 07 c0 5d 13 85 bf
       -1.1390094 -0.7131848 -2.115913 -1.0396534
000370 db b4 c8 bf 01 e7 ec bf 31 d6 1e bf ca 3d 03 c0
       -1.5680193 -1.8507997 -0.6204558 -2.0506463
000380 c5 0f 02 c0 71 86 8a be 00 b5 60 bf f6 4e 9f bf
       -2.0322125 -0.27055696 -0.87776184 -1.2445972
000390 82 31 17 40 f7 5d f5 bf d0 47 d9 bf b6 2d c8 bf
       2.3623967 -1.9169301 -1.697504 -1.563895
0003a0 94 6b dc bf f7 b5 7a bf fb b3 b8 be 9e 22 04 c0
       -1.722033 -0.97933906 -0.36074814 -2.0646129
0003b0 dc fc b9 bf 6e 1c f9 bf 76 4b 43 bf a0 be eb bf
       -1.4530292 -1.9461801 -0.7628702 -1.8417549
0003c0 12 d0 af bf e2 22 5a bf 29 87 8e bf 3b 18 0a c0
       -1.3735373 -0.85209477 -1.1134998 -2.157729
0003d0 7d d9 06 c0 f6 c8 fd be 27 58 06 c0 08 7f d3 bf
       -2.1070244 -0.49567384 -2.0991304 -1.6523142
0003e0 3f 66 01 c0 e5 41 ee bf 7d d9 59 bf 1d 5f f6 bf
       -2.0218656 -1.861386 -0.85097486 -1.9247776
0003f0 f6 50 bc bf bf 02 26 bf 5a e9 54 bf 5a 04 ef bf
       -1.4712207 -0.6484794 -0.83168566 -1.8673203

lstm.weight_ih_l1 f4 [256, 64]
000000 26 3e c7 3e b5 7b 23 be 84 5a 63 3f 34 fc 6a 3e
       0.38914603 -0.15965159 0.8880999 0.2294777
000010 5b d0 44 bf d9 33 8f 3e 5a bd ec be d9 fe c6 3e
       -0.76880425 0.27969244 -0.46238214 0.38866308
000020 31 eb 08 3e 91 de 58 3e 13 71 d6 bc 81 b5 79 bf
       0.13370968 0.21178652 -0.026176965 -0.9754258
000030 8c a1 06 3e 6a 8e a5 bf 8e 4c 13 3f 71 29 bf 3e
       0.13147563 -1.2934086 0.5753869 0.37336305
000040 7c 67 b0 3e 2b 31 20 40 97 b7 ee 3f d7 7e 92 3f
       0.34453952 2.503001 1.8649777 1.1444958
000050 4d 59 21 be 94 61 b0 be 06 9b 76 3f 1d c4 2b c0
       -0.15756722 -0.34449446 0.96330297 -2.6838448
000060 f9 04 af bf 47 b9 c2 bf 6c 74 76 be 9d 93 07 40
       -1.3673393 -1.5212792 -0.24067849 2.1183846
000070 c4 7a 85 3f 54 eb 02 3f 9c cc ce 3f 4b c9 c9 bd
       1.042809 0.5114033 1.6156192 -0.09852847
000080 82 50 79 be 1f 3e 55 40 4e c6 f3 3f 9c 8b fd bf
       -0.24347118 3.3319166 1.9044893 -1.980823
000090 90 78 9e c0 96 a5 c9 3e 50 2a 49 bf 3c 0b af bf
       -4.952217 0.39384145 -0.7858019 -1.3675303
0000a0 66 1a 9a 3f 8d 6d 1e 40 a8 6a 41 40 27 5c 83 be
       1.2039306 2.4754364 3.0221348 -0.25656244
0000b0 2b 49 d2 bf 40 81 0f bf d4 29 a3 bf 0a 86 34 3f
       -1.6428579 -0.56056595 -1.274714 0.7051703
0000c0 e6 aa 59 3f 45 34 46 3f f9 3d b4 3f 3d ac 11 3e
       0.85026395 0.77423507 1.4081413 0.1422586
0000d0 56 d5 bc 3d f5 63 6f bf c0 a2 22 bd cb 46 84 3f
       0.09220378 -0.935119 -0.03970599 1.0334104
0000e0 96 e7 ae bd 06 fe 8a be 8e 05 9f 3f ab a4 79 bd
       -0.08540265 -0.2714693 1.242357 -0.060948055
0000f0 20 85 e6 3e 95 57 08 3f e7 53 b4 bf ec 25 04 3f
       0.4502344 0.5325864 -1.4088105 0.51620364
000100 6e c8 62 bd 32 59 85 bd 37 63 7f 3e 6f 52 8c bc
       -0.055366926 -0.06511153 0.24940191 -0.017129151
000110 61 e6 51 bd 33 ea 29 bd af 4a 19 3e 79 87 90 3e
       -0.051245097 -0.041483115 0.14969896 0.28228357
000120 d9 c6 fa 3d 2f 51 7e 3e 81 3f e6 3d 0e f2 13 3d
       0.122449584 0.24835657 0.11242581 0.036119513
000130 ea ae 59 3e 63 a0 58 be 8e 0f 31 3d 87 2b c2 3d
       0.2125813 -0.21154933 0.043227725 0.094809584
000140 65 90 6a 3e 7a 30 8e be 7c e6 40 bd 2d d9 4a 3e
       0.22906645 -0.2777136 -0.047094807 0.19809408
000150 19 cf be bd 66 6a a9 be 7d 72 a6 3e 54 2a c6 be
       -0.093168445 -0.33088988 0.32509223 -0.3870417
000160 dc 6d 78 bd ed 24 30 be 56 bf 17 be a8 9e b0 3e
       -0.060651645 -0.17201586 -0.14819083 0.34496045
000170 ff 43 e8 3e 68 87 94 bc 53 c7 85 3e e8 a5 b5 be
       0.45364377 -0.018130973 0.26128635 -0.3547814
000180 59 41 24 bd ca 24 85 3d c0 03 00 3f 9b e0 30 bd
       -0.040101383 0.065011576 0.5000572 -0.04318295
000190 da 15 82 bf 74 ce 83 3e 58 df b2 3c 65 57 0f bc
       -1.0162919 0.2574345 0.021835014 -0.008748864
0001a0 8d 31 6c 3e fd 63 3b 3f b6 73 db 3f 74 3f 5d be
       0.23065777 0.73199445 1.7144687 -0.21606237
0001b0 a3 97 24 be de 75 9c be 7f ff 34 3d 94 88 78 bd
       -0.1607347 -0.30558676 0.044188973 -0.060677126
0001c0 5a c6 3d 3c b3 06 d8 3e 91 44 46 3e ec cd 0f 3e
       0.011582935 0.4219261 0.19362094 0.14043397
0001d0 56 31 1a 3e 8b ee 2e be 7c 0e fa bd 71 e1 b2 3e
       0.15057883 -0.17083184 -0.12209794 0.34937623
0001e0 ce d1 fe 3d d3 33 9f bd 71 51 a9 3e de 27 2f 3d
       0.12442361 -0.077735566 0.33069947 0.04276263
0001f0 71 55 11 3d ff da 8b 3e 9f 5a 0e 3a 8b b8 b0 3e
       0.035481874 0.27315518 0.0005430374 0.34515795
000200 a9 aa 8d 3d 53 92 a9 3d 4a 28 af bc f4 ef 22 bd
       0.069173165 0.08279862 -0.021381516 -0.03977962
000210 10 9b 7d 3c be 4d 04 3d 3b 76 7e 3d 3c 1e 48 3e
       0.015478864 0.032300703 0.062124472 0.19542783
000220 33 84 8e bd 14 ae b4 bd 20 bc 16 3e 64 cc 27 3e
       -0.06958809 -0.08822265 0.14720201 0.16386563
000230 1b 2a ad bb 7a f5 1c be 9b 8d 13 3e 72 2a 41 3e
       -0.0052845604 -0.15328017 0.14409487 0.18863848
000240 e8 00 ab 3d 1e 42 19 be 62 c3 0a 3b f0 5b ea 3d
       0.08349782 -0.14966628 0.0021173586 0.11443317
000250 b2 17 66 3d 87 f2 1c bd 4d 63 8d bb 60 10 31 3e
       0.05617494 -0.03831723 -0.004314816 0.17291403
000260 79 ec bb bc 34 f6 17 3b c5 74 88 3c 95 2f 1b be
       -0.022939907 0.002318752 0.016657243 -0.1515487
000270 a2 ca 6f 3b a4 48 25 3c 7b e2 98 bc 52 be 66 3c
       0.0036589284 0.01008812 -0.018662682 0.014083462
000280 12 c5 52 bd 8f 9c 6a bd 3b eb 41 3e b9 b1 e9 3e
       -0.051457472 -0.057278212 0.1893739 0.45643404
000290 e3 7c bf be da e8 3c 3e f6 87 6b 3e 32 8a c5 bd
       -0.37399969 0.18448201 0.23001084 -0.09645499
0002a0 f0 a6 4b 3e d7 34 9d 3d 33 ed 9d bb 81 b9 01 bd
       0.198879 0.07676094 -0.004819536 -0.03167105
0002b0 ff 31 06 be 15 bb 1c bb 45 6a 0e 3e d7 4a 55 bd
       -0.1310501 -0.002391522 0.13907726 -0.052073326
0002c0 7b f2 07 be c9 53 69 bd 75 f5 c6 3c 55 1f 3d 3b
       -0.13276093 -0.05696467 0.024286965 0.0028857787
0002d0 16 aa 27 bd 49 0c 28 be 81 dc 09 3e 49 fa cb 3d
       -0.04093369 -0.16410936 0.13463022 0.099598475
0002e0 b9 b8 fa bc 2b 29 4a be 87 c4 50 bc 2b 04 db bd
       -0.03060566 -0.19742267 -0.012742168 -0.10694154
0002f0 2c 75 1e 3e 6f 20 35 be 47 63 6f be 3a 3c 0a 3e
       0.15474385 -0.17688154 -0.23377715 0.13499537
000300 c7 02 e3 bc 51 34 2d 3e 34 94 a4 3d 15 1e 87 3d
       -0.027711285 0.16914488 0.0803608 0.065975346
000310 42 01 2b be 09 28 30 3e ca 30 44 3a e4 07 2a 3e
       -0.16699699 0.17202772 0.0007484077 0.16604573
000320 e3 02 34 3d 6a 9e 76 bb 1a 95 06 3e 3d 1b 19 3e
       0.043948065 -0.0037631043 0.13142815 0.14951797
000330 24 4e f6 3d ca 69 2e be 33 18 28 3e ee 76 0b 3e
       0.12026623 -0.17032543 0.16415481 0.13619587
000340 3b 1d b5 3d 1b ee 07 be 55 ae c7 bd 22 71 39 3d
       0.08843466 -0.13274424 -0.09750048 0.045273907
000350 4f dc 39 bd 93 c5 1c bc 59 c5 94 3d e3 92 a1 3e
       -0.04537612 -0.00956859 0.072642036 0.31557378
000360 06 dd fa 3c 5a 54 99 3c 58 53 76 3d c8 fb 1e bd
       0.03062297 0.01871698 0.060138077 -0.038814336
000370 19 0c e8 bd 64 f0 ed 3d 34 bf 12 3e 5d 8c 04 be
       -0.113304324 0.116181165 0.1433075 -0.1294417
000380 a7 5b 81 bd bf c5 e8 bd 3b 4f 0c 3e 9e a1 89 3e
       -0.063163094 -0.11365842 0.13702099 0.26881117
000390 f1 6f 92 bf c8 36 24 bd f9 17 0c bd 74 82 a3 bc
       -1.1440412 -0.040091306 -0.03420255 -0.019959666
0003a0 66 9d b7 bc 62 93 5b 3c 78 f3 09 3e 71 3f 9a 3d
       -0.02241392 0.013401838 0.13471782 0.07531632
0003b0 f2 b2 0b be 38 49 64 bd 71 e4 36 3e 12 cc c9 3d
       -0.13642481 -0.05573389 0.17860581 0.098533764
0003c0 29 2e 1a bd bc 70 21 3d bb 77 cb 3d 27 ce 23 3e
       -0.037641678 0.039414153 0.09934946 0.1599661
0003d0 f2 e2 63 bd 78 3c d5 bd 66 be bb bb 07 d5 35 bd
       -0.055636354 -0.10411924 -0.0057294844 -0.04439261
0003e0 6a 7a 89 bd c1 a1 a8 bd ea db 1b 3e 7f 3f 89 be
       -0.06712802 -0.08233977 0.1522061 -0.26806256
0003f0 ae 86 bc bc 09 5a 5d 3b ca 80 8f bd 9d 7d 23 3e
       -0.023013439 0.003377559 -0.070069864 0.15965886

lstm.weight_hh_l1 f4 [256, 64]
000000 b5 2e bf 3f b1 71 96 3d 54 f8 17 3e 28 0a 86 bc
       1.4936129 0.07345904 0.14840823 -0.016362265
000010 66 eb 35 3d 6e 13 47 bf 34 ff cc 3d 86 c2 41 3d
       0.044413947 -0.7776402 0.10009614 0.047304653
000020 89 be b2 be 97 80 81 bd 51 cc 4b 3c 45 15 6e 40
       -0.34910992 -0.06323355 0.01243885 3.7200482
000030 51 78 85 3e 9c e8 0f bd a1 26 e7 3c 2d 18 b9 bd
       0.26068357 -0.035133943 0.028216662 -0.09037814
000040 37 41 c1 3f e9 ad 35 3e 05 89 a0 c0 cb e0 fd bc
       1.5098027 0.17742123 -5.016726 -0.030990979
000050 f4 be 37 3c 47 a9 c6 3d ed 28 8d 3e 40 11 88 be
       0.01121496 0.09700256 0.27570286 -0.2657566
000060 2f 2d 65 3d 73 f4 2d bc dc 56 e6 bd 8f d8 00 3e
       0.055951294 -0.010617363 -0.11247036 0.1258261
000070 73 37 8d 3e 28 9a 01 c0 ea db 54 bc 90 ed c6 3e
       0.27581367 -2.025034 -0.012991885 0.3885312
000080 c1 ad 35 bd be dc 4b be 20 1f 7b bd 0f ab 55 3d
       -0.044355158 -0.19908425 -0.06130898 0.052165087
000090 f9 b4 db be 97 4c 46 3d 56 41 9e bd 26 0c 2c 3e
       -0.4291151 0.048412886 -0.077273056 0.1680151
0000a0 1d 2d 69 be 9b bb 90 3c ef a2 87 c0 33 96 3b 3e
       -0.22771116 0.017667582 -4.2386394 0.18319015
0000b0 15 3e 08 bf 6a 1a 10 3d c0 0d c5 bd 10 a8 fd bc
       -0.5321973 0.03518144 -0.09621763 -0.030963928
0000c0 b2 5f 0e 3e c4 13 1b bf 60 cc 85 3d 33 20 8b bc
       0.13903692 -0.60577035 0.06533122 -0.016983127
0000d0 d1 5c f3 3f 71 98 a5 3c 81 97 d2 3f 6e 2a 01 bf
       1.90127 0.020214291 1.6452485 -0.5045537
0000e0 86 21 f9 bd 17 50 6b 3d 18 30 a0 be a5 0d df bd
       -0.12164597 0.057449427 -0.31286693 -0.10891274
0000f0 df 07 5f 3e 7f 69 35 3e 46 f5 8a be 50 99 1c be
       0.21780346 0.17716025 -0.27140254 -0.15292859
000100 c1 a7 a7 be 58 23 fc 3d b2 ec 81 be c0 9f 33 be
       -0.32745174 0.12311429 -0.25375897 -0.17541409
000110 7a 46 14 bd 42 f5 02 3e 87 96 3e 3e 91 22 19 be
       -0.036200024 0.12788871 0.18612109 -0.14954592
000120 a4 51 5d be e6 9d 28 3e f9 4b 25 bd 0d f1 bd bf
       -0.21613175 0.16466483 -0.040355656 -1.4839188
000130 b1 01 3f 3d 00 59 c6 3d 9a 7d 41 3f 2c 65 11 3d
       0.046632472 0.09684944 0.7558228 0.035496876
000140 85 32 d8 3e b1 ee ed 3c cb 1f 28 bf 50 b3 a7 3d
       0.42226043 0.029044481 -0.6567351 0.08188498
000150 b3 7a fd 3c 94 47 16 3e be 63 0f be c3 9b a7 be
       0.030942297 0.14675742 -0.14002892 -0.32736024
000160 6b db d7 3d e2 4f 59 bc f6 73 14 be 76 d2 15 3e
       0.105398975 -0.013263674 -0.1449736 0.14631066
000170 ab ad 47 bf 1d 40 e4 3e cd 07 24 be 8d 39 ce be
       -0.7799937 0.44580165 -0.16018601 -0.40278283
000180 8e d0 12 3e 98 ef 8c be 35 39 83 bd 44 50 f6 3d
       0.1433737 -0.27526546 -0.06407396 0.12027028
000190 7e 90 d6 be 1c cf ae 3e 4f 14 36 3e 9c 8f bb bd
       -0.41907114 0.34142387 0.17781185 -0.09158251
0001a0 3d 81 f6 bd e5 bd 45 3d ad 3c 95 3f ee da 69 be
       -0.12036369 0.0482768 1.1659142 -0.22837421
0001b0 00 46 ab be 07 b2 c7 3b b0 37 fb bd a5 76 97 3e
       -0.33451843 0.0060942206 -0.12266481 0.29582706
0001c0 14 65 0d 3d e7 8c 9e 3d e6 7c 03 3e 1e 43 02 bd
       0.034520224 0.07741719 0.12840614 -0.03180229
0001d0 04 9c 02 3f 55 bf af 3d 0b 88 0b 3f 16 69 d8 bc
       0.5101931 0.085814156 0.5450446 -0.026417296
0001e0 ed 34 1b 3e e0 47 16 3d 81 0a ef be 23 62 fe bd
       0.15156908 0.03668964 -0.466877 -0.12421062
0001f0 c2 de bf 3e f0 21 a3 3d 62 a0 ba bd b2 81 05 be
       0.37474638 0.079654574 -0.09112622 -0.13037756
000200 8d 26 9b be 81 b5 70 3e cf f7 16 3e cf 84 a5 3d
       -0.3030285 0.23506738 0.14742969 0.08081972
000210 a7 50 0d 3d 4c 7b 43 3e d8 12 3b be c0 e3 fe bd
       0.034500744 0.19090003 -0.18268907 -0.124457836
000220 60 11 b1 bb b6 6c 45 3e b1 24 18 3d 24 00 48 bf
       -0.0054036826 0.19279751 0.037144367 -0.78125215
000230 a1 3b 88 3d c1 01 42 bd be b4 16 3f 32 bb be 3d
       0.06651998 -0.047364954 0.5886954 0.093130484
000240 a8 97 87 3e 13 c7 be bd 7d 5e eb be 74 bd d8 3d
       0.26482892 -0.09315314 -0.45970526 0.1058301
000250 9a 82 4a 3d e6 c5 fe 3c f2 32 2f 3e 99 f7 c0 bd
       0.049440958 0.031100225 0.17109278 -0.094222255
000260 db 5c 42 3d 4c d9 36 3d 1d da c8 bc 9a 32 73 3d
       0.047451835 0.044640824 -0.024518067 0.05937443
000270 19 76 23 be f5 d2 00 be 28 bb 78 3c 63 db eb bb
       -0.1596302 -0.12580474 0.01518134 -0.007197784
000280 7e af a9 bd 31 a5 0f 3c 1f 00 8c bd ad f9 de 3d
       -0.082854256 0.008767412 -0.068359606 0.108874656
000290 53 78 10 bf 76 a2 18 bd 37 f3 d7 bd 74 ad eb 3c
       -0.564336 -0.03726431 -0.105444364 0.028769232
0002a0 3e 78 b9 bc 53 0d 07 bd 6b 98 3f 3f f8 51 b6 bd
       -0.022640344 -0.03297169 0.74841946 -0.08902353
0002b0 1a 67 ef bc e9 40 1c be 5c 0b ac bd 22 5b e1 3d
       -0.029223967 -0.15259136 -0.08400604 0.1100371
0002c0 24 10 df 3d b9 ff d9 bd 2f 2d 80 bd a8 00 a3 bd
       0.108917505 -0.10644478 -0.06258618 -0.079591095
0002d0 b5 b5 96 3c 3f 58 0e 3e 31 2f 0c 3e 8a d8 48 3e
       0.018397192 0.1390085 0.13689877 0.19613853
0002e0 7d ba 3d be 1b 94 10 be f2 68 19 be ea ea 36 be
       -0.18528171 -0.14118998 -0.1498144 -0.1786305
0002f0 11 68 69 bc ec 30 95 bd d4 a0 71 3d 44 96 1c be
       -0.014246003 -0.07284722 0.05899127 -0.15291697
000300 33 26 38 3e c8 63 c8 3d ff 89 00 3d 77 0c 2f 3e
       0.17983322 0.09784657 0.031381603 0.17094599
000310 f4 82 5e 3c 68 3c 05 bd 77 ff cc 3d 0d 0d 13 3d
       0.013581026 -0.03252831 0.100096636 0.035901118
000320 cb 1c e9 bd d3 ca 23 3e 73 46 46 3d d1 11 82 3e
       -0.11382445 0.1599534 0.04840703 0.25404218
000330 87 cd b7 bd 3a 5c 8d bd fe 4a e3 3e a4 e8 29 bc
       -0.08974748 -0.069023564 0.44393152 -0.010370407
000340 d4 b1 64 3c 42 00 9f bd 00 48 1e bf 95 99 9c bc
       0.013958413 -0.07763721 -0.61828613 -0.019116202
000350 b4 c8 8d 3d 61 69 f5 bd 00 75 6b bd bb 1a 84 bd
       0.06923047 -0.1198299 -0.057484627 -0.06450411
000360 d8 03 97 3d 69 4c 4e 3d 03 60 4f 3d da 34 d5 3d
       0.0737378 0.05036584 0.050628673 0.10410471
000370 9d 48 39 bd de 77 be bd b0 87 2a bd 14 7f 71 3e
       -0.045235265 -0.093002066 -0.041633308 0.23583633
000380 03 bd b2 3d a1 58 56 bd d6 34 e0 bd c9 cf 22 3c
       0.087274574 -0.052330617 -0.10947578 0.009937235
000390 07 75 0e be 9b 04 43 be 45 f1 d0 3d 47 da c0 3c
       -0.1391183 -0.19044726 0.102022685 0.023541583
0003a0 46 aa 44 bd 13 7f 03 3d 14 0e 11 bf 6c 46 49 bc
       -0.048013948 0.03210361 -0.56662107 -0.012284856
0003b0 1f 55 e1 bc a4 ff 54 3d e4 19 c5 3d 92 f6 56 3c
       -0.02750641 0.05200161 0.09624079 0.01312031
0003c0 62 1e 36 bc e3 39 02 be 31 7e 81 bd f9 68 c1 3d
       -0.011115642 -0.12717395 -0.06322897 0.0944385
0003d0 26 38 1e 3d e1 88 3d bd c3 b1 cd 3d a3 98 08 be
       0.038627766 -0.046273116 0.10043671 -0.13339476
0003e0 bb 93 89 3c 69 9e 8f bd e7 6f 8e bb fb a1 38 be
       0.016794076 -0.07012636 -0.004346836 -0.1803054
0003f0 8a 1f 85 bc 5f cc 19 bd ab 6e c3 3d 0b 6d c0 3b
       -0.01625039 -0.03754842 0.095425926 0.005872374

lstm.bias_ih_l1 f4 [256]
000000 b5 3b c1 bf 39 b6 2a c0 3f 0f 23 c0 c0 9f 2b c0
       -1.5096346 -2.667372 -2.5478055 -2.6816254
000010 7f f9 1f c0 29 b3 a7 be 1b fa 14 c0 11 15 07 c0
       -2.499603 -0.32753876 -2.3277652 -2.1106608
000020 1e 6e 18 c0 a0 dd 26 c0 4e 86 26 c0 49 07 f4 bf
       -2.381721 -2.607277 -2.6019473 -1.9064723
000030 fc 61 29 c0 e9 a7 28 c0 4b 0c 92 bf f1 3e 07 c0
       -2.6466055 -2.6352484 -1.1410002 -2.1132166
000040 db 3b c3 bf b2 52 20 c0 e7 b5 a7 bf 36 ef 19 c0
       -1.5252641 -2.5050473 -1.3102387 -2.4052253
000050 ca 4f 27 c0 fe db 01 c0 4e a9 1c c0 0c 7b 2c c0
       -2.614245 -2.0290523 -2.4478335 -2.6950102
000060 b2 37 24 c0 2e b6 16 c0 33 20 2c c0 1a 18 27 c0
       -2.5658994 -2.3548694 -2.6894653 -2.610846
000070 56 02 3a c0 52 b2 bb bf 29 aa 1f c0 dc 1b 17 bf
       -2.9063926 -1.4663794 -2.4947608 -0.59026885
000080 fa c1 21 c0 f9 4a 2e c0 97 41 31 c0 58 96 1d c0
       -2.5274644 -2.723326 -2.7696283 -2.4623013
000090 06 05 13 c0 81 41 2a c0 74 b5 09 c0 ff c4 3b c0
       -2.2971816 -2.660248 -2.1517 -2.9338987
0000a0 33 a9 1f c0 c9 ac 11 c0 ce 7e e7 bf f2 3a 21 c0
       -2.494702 -2.276171 -1.8085573 -2.5192227
0000b0 ef ef 19 c0 7b d5 1a c0 e5 db 16 c0 9f 31 22 c0
       -2.4052694 -2.4192798 -2.3571713 -2.5342786
0000c0 d2 ac 24 c0 3f 3a 22 c0 39 4d 1e c0 e9 e4 1f c0
       -2.573048 -2.534805 -2.4734633 -2.4983466
0000d0 bb 93 9e bf 60 f9 28 c0 84 37 be bf dc ab fb bf
       -1.2388834 -2.6402206 -1.4860692 -1.9661822
0000e0 38 a8 10 c0 25 f2 23 c0 39 d1 33 c0 08 7f 1a c0
       -2.2602673 -2.5616543 -2.809645 -2.4140034
0000f0 b0 3a 24 c0 5f 1e 22 c0 1c d0 0d c0 34 12 19 c0
       -2.566082 -2.5331037 -2.215827 -2.391736
000100 3e 39 55 c0 db 08 1f bf 49 d1 54 bf 8e 6e 68 bf
       -3.3316188 -0.6212289 -0.83131844 -0.90793693
000110 73 ea 87 bf 45 8a ca 3e 22 13 1a be 52 63 18 c0
       -1.0618423 0.39558616 -0.15046361 -2.381062
000120 9e a5 9e bd 4c 1f 81 bf 7f bc 1b bf b7 87 03 3f
       -0.07746433 -1.0087676 -0.608345 0.5137896
000130 8a f9 7b bf f0 fd 7b bf db ca 96 bf 68 5d e3 bd
       -0.9842764 -0.9843435 -1.1780657 -0.111018
000140 d3 b9 1a c0 9d 93 89 bf a2 3b af bf f3 d7 da be
       -2.4175918 -1.0748173 -1.3690073 -0.4274288
000150 7c 99 d1 be 64 f6 1e c0 94 36 bb be 73 de aa bf
       -0.40937412 -2.4837885 -0.36565077 -1.3349136
000160 91 10 7a bf 09 be ab bf b5 02 40 bf be ce 89 bf
       -0.9768153 -1.3417369 -0.7500413 -1.0766218
000170 f6 36 e3 bf 36 d9 53 c0 74 84 e1 bf e7 b1 e6 3e
       -1.7751148 -3.3101325 -1.7618546 0.45057604
000180 98 76 ce bf 99 36 89 bf 25 10 3c bf 74 73 7c bf
       -1.6129942 -1.0719787 -0.73462135 -0.9861367
000190 8e 2b 8c be 19 dc c9 bf fb 72 70 bf dd 84 57 bf
       -0.2737698 -1.5770293 -0.93925446 -0.8418711
0001a0 c4 0a 32 bf c5 72 38 bf f7 51 19 c0 56 13 e1 bf
       -0.6954768 -0.72050124 -2.3956277 -1.7584026
0001b0 f2 15 5f bf db d2 83 bf 11 f4 50 bf 52 e5 7b bf
       -0.8714286 -1.0298723 -0.81622416 -0.9839679
0001c0 bd 41 91 bf 8b 72 d6 bf 25 fc 34 bf 16 48 97 bf
       -1.1348187 -1.6753706 -0.7069724 -1.1818874
0001d0 25 f3 3f 3f 82 a2 1f bf f9 37 e6 bd b7 7a 90 3e
       0.74980384 -0.6235734 -0.11241145 0.28218624
0001e0 5e b4 f7 bc 6e 42 57 bf 1f 84 a1 bf d8 bd 86 bf
       -0.030237373 -0.8408574 -1.2618445 -1.0526686
0001f0 91 62 8c bf 87 e4 97 bf 4c 81 4e bf b1 43 fa bf
       -1.096758 -1.1866616 -0.8066604 -1.9551908
000200 8e d1 a3 3e 93 ef 83 3c a8 5e c0 bd d3 81 2a 3d
       0.31995815 0.016105449 -0.09393054 0.041627716
000210 51 34 27 bc 70 ea 9c 3d e3 42 62 bd 7e 09 ff bd
       -0.010205344 0.07661903 -0.05523957 -0.12452982
000220 29 d3 6c 3e 1f 23 82 bd 0c ba 79 bd dd ff 51 bc
       0.23127426 -0.06354355 -0.060968444 -0.01281735
000230 13 64 95 3d 73 ee b7 bd 38 e7 50 be e4 91 3a 3d
       0.07294478 -0.089810275 -0.20400703 0.04554929
000240 63 ce f4 3e 12 db 0b be f3 96 16 3e d7 d9 ec 3d
       0.4781371 -0.13657787 0.1470602 0.11564987
000250 ac 13 24 bd c0 9c 71 be cd 45 8a 3c 25 17 8d 3d
       -0.040057823 -0.23594952 0.016878987 0.0688918
000260 59 c2 b1 3c 7d 07 5f 3e 09 9a 3e 3d 12 d6 8c 3b
       0.021699117 0.217802 0.046533618 0.00429798
000270 60 6e ec 3d 59 04 08 bf 28 cb 04 3d a6 10 09 be
       0.1154449 -0.53131634 0.032420307 -0.13385257
000280 f1 83 3a 3d b7 9a db bd a8 e9 33 3e 1f 12 16 bd
       0.045535985 -0.10722869 0.17569602 -0.036638375
000290 fa 4d 46 3e de bd 00 3c fb fd 8d bd 8e 3a 3e bb
       0.19365683 0.007857768 -0.069332086 -0.00290266
0002a0 b2 9d 8e bc 22 50 56 bd 24 20 8d 3d 04 11 57 3d
       -0.01740918 -0.052322514 0.06890896 0.05250646
0002b0 6e 9c 13 3e c1 fa ab bb 51 f2 ed bd d2 07 ad 3d
       0.14415142 -0.005248398 -0.11618484 0.08448757
0002c0 54 ed 5d bd 84 e7 aa bc fb 91 c7 bd 0f ba f2 bd
       -0.05418141 -0.020862348 -0.097446404 -0.11851894
0002d0 cf 85 a6 be 70 4c 09 bb 96 69 8e be 12 a4 30 3e
       -0.32523963 -0.0020950101 -0.2781493 0.17250088
0002e0 4f 10 2c be 1b 4c 58 3d dd 87 67 3c ab 4e d9 3c
       -0.16803096 0.052806955 0.014131513 0.02652677
0002f0 47 50 17 3c d7 7f 31 bd ca 6c 40 3e ef 19 3a be
       0.009235448 -0.04333481 0.187915 -0.18173955
000300 f3 23 c5 bf a5 85 28 c0 fa e3 1e c0 a2 ff 1f c0
       -1.5401596 -2.633157 -2.4826646 -2.4999776
000310 de de 27 c0 1f a9 fc 3e 4d 5a 10 c0 0f 5c 05 c0
       -2.6229777 0.4934778 -2.2555115 -2.0837438
000320 96 11 12 c0 52 d2 1b c0 77 db 1b c0 59 ae b4 bf
       -2.2823234 -2.434712 -2.43527 -1.4115707
000330 9e 74 2e c0 f0 f0 1e c0 97 26 9e bf ef 6d 04 c0
       -2.7258677 -2.4834557 -1.2355527 -2.0692098
000340 e2 62 ac bf 9a fb 13 c0 0b fb 8e bf 00 8e 1e c0
       -1.3467677 -2.3122315 -1.1170362 -2.477417
000350 24 8c 1c c0 ed 0d 00 c0 84 89 1d c0 5b 57 2b c0
       -2.4460535 -2.00085 -2.4615183 -2.6772068
000360 9e 83 1c c0 36 4f 15 c0 56 bb 13 c0 86 49 22 c0
       -2.4455333 -2.3329597 -2.308309 -2.5357375
000370 f2 5c 2f c0 b4 be f1 bf 97 dd 1d c0 2b 05 d1 be
       -2.740048 -1.8886323 -2.4666498 -0.40824255
000380 ba eb 13 c0 69 16 27 c0 61 f7 24 c0 ca 40 19 c0
       -2.3112626 -2.6107428 -2.5775988 -2.3945794
000390 50 f9 0a c0 22 19 28 c0 55 32 14 c0 78 21 17 c0
       -2.1714668 -2.626534 -2.315572 -2.3614178
0003a0 a9 7a 1d c0 d9 b8 1a c0 4d b3 e7 bf 45 4b 1d c0
       -2.4606116 -2.4175322 -1.8101593 -2.457719
0003b0 51 9f 11 c0 cf 46 1d c0 bf 2e 13 c0 0d 93 1c c0
       -2.275349 -2.4574468 -2.2997282 -2.4464753
0003c0 c3 8e 29 c0 1c 97 23 c0 25 9f 15 c0 08 63 10 c0
       -2.6493385 -2.556098 -2.3378384 -2.2560444
0003d0 30 26 b9 bf 5b f6 1b c0 a2 05 a4 bf be d4 f0 bf
       -1.4464779 -2.4369113 -1.2814219 -1.8814924
0003e0 07 2e 16 c0 db 2d 25 c0 2f d3 32 c0 dd b0 23 c0
       -2.3465593 -2.5809238 -2.7941396 -2.5576699
0003f0 71 5a 25 c0 80 80 23 c0 ea 2f 0e c0 86 05 05 c0
       -2.583645 -2.554718 -2.2216744 -2.0784621
