saved_models/lstm_forecast.pt (torch, 189510 bytes, 13 tensors)

lstm.weight_ih_l0 f4 [240, 1]
0	0x3edfae9c	0.43687904
1	0xbe53d503	-0.20686726
2	0x3e2cc066	0.16870269
3	0xbe4efe92	-0.20214298
4	0x3e444dd2	0.19170311
5	0xbe21d08d	-0.15802212
6	0xbce30aff	-0.027715204
7	0xbe63a5b6	-0.22231182
8	0x3e2203bb	0.15821736
9	0x3eb16cf2	0.3465343
10	0x3db78e3a	0.089626744
11	0x3e77d31f	0.2420163
12	0x3e0390eb	0.1284825
13	0xbdba943d	-0.091103055
14	0xbd708bb1	-0.05872697
15	0xbe310d13	-0.17290144
16	0xbf45034e	-0.7695817
17	0xbe57a789	-0.21060003
18	0x3ea88fe5	0.32922283
19	0xbea62613	-0.32450923
20	0xbe20f3c2	-0.15717986
21	0xbf2d35f9	-0.6766048
22	0xbfa04fef	-1.2524394
23	0xbf504b07	-0.8136448
24	0x3e11acec	0.1422612
25	0x3ec08747	0.37603208
26	0xbeb0d7b4	-0.34539568
27	0xbf2395a4	-0.6390021
28	0x3ce213de	0.027597364
29	0xbdd391dd	-0.103305556
30	0x3eb4c9d3	0.3531023
31	0xbdbc77ed	-0.092025615
32	0x3c0624cc	0.008187484
33	0xbdc61a4c	-0.096729845
34	0xbe3d1147	-0.18463622
35	0xbeb5d0fb	-0.35511002
36	0xbf58241b	-0.8443009
37	0xbef7d9a8	-0.48408246
38	0xbdc40d9f	-0.095729105
39	0x3eb7c1a1	0.35889915
40	0xbea3b1a5	-0.3197147
41	0xbf036715	-0.51329166
42	0xbdaf5a1b	-0.08562108
43	0xbf0987ab	-0.5372264
44	0x3d8a8029	0.06762726
45	0xbe0188a5	-0.12649782
46	0xbed75d80	-0.42063522
47	0xbe9ba587	-0.30399725
48	0xbeb76e44	-0.35826313
49	0x3d8f0ba1	0.0698464
50	0xbed570e0	-0.4168768
51	0xbd96cd8d	-0.073634245
52	0x3df30e67	0.118679814
53	0xbc0d9895	-0.008642335
54	0x3e18356c	0.14864129
55	0xbf5c25eb	-0.8599536
56	0x3e73ebfd	0.23820491
57	0xbed6ff7f	-0.41991803
58	0xbf13b4cf	-0.57697767
59	0x3c80c64d	0.015719557
60	0x3d90019a	0.070315555
61	0xbe21ee33	-0.15813522
62	0x3eb1b99e	0.34711927
63	0x3d45e041	0.04830957
64	0xbd7c2404	-0.061557785
65	0xbe843424	-0.2582103
66	0xbd0350af	-0.032059368
67	0x3ea84f94	0.32873213
68	0x3db2aa41	0.087238796
69	0x3eb44f4d	0.35216752
70	0xbdb8daa3	-0.09026077
71	0x3e05f29b	0.13080828
72	0x3eb136a1	0.3461199
73	0xbd978d49	-0.07399995
74	0x3dae024f	0.08496534
75	0x3e36c4c7	0.17848502
76	0xbf10ce4f	-0.565648
77	0x3d63825c	0.055544242
78	0x3ed92c52	0.42416626
79	0xbe3470da	-0.17621174
80	0x3ccd618d	0.02507093
81	0xbf3171dd	-0.69314367
82	0xbf1b2ba8	-0.6061349
83	0xbedb30d0	-0.42810678
84	0x3e1ffdab	0.1562411
85	0x3e99f8de	0.30072683
86	0xbe062f6d	-0.13104029
87	0xbf1c38ef	-0.61024374
88	0x3ed976df	0.42473504
89	0x3b805634	0.003916526
90	0x3e948709	0.29009274
91	0xbda5997a	-0.08085914
92	0x3d46a001	0.048492435
93	0x3ca28579	0.019839035
94	0xbe2140d2	-0.15747383
95	0x3d1f940e	0.038959555
96	0xbf3a9212	-0.72879136
97	0xbed4d57c	-0.41569126
98	0xbdfaf29d	-0.12253306
99	0x3eb3565d	0.35026827
100	0xbb5e1641	-0.0033887776
101	0xbeaa6e24	-0.33287156
102	0xbd812f01	-0.063077934
103	0xbe09d7fe	-0.134613
104	0xbd249461	-0.040180568
105	0x3cf82688	0.03029181
106	0xbe917a99	-0.28413847
107	0xbf022ada	-0.50846636
108	0xbec1eb3c	-0.37874782
109	0x3d81e518	0.06342524
110	0xbe97fd0c	-0.29685247
111	0x3e34c78e	0.17654249
112	0x3ca7184d	0.02039733
113	0x3eee7d27	0.4657986
114	0x3de7f51f	0.1132605
115	0xbf0a73fe	-0.5408324
116	0x3e958ed0	0.2921052
117	0xbf00b738	-0.5027957
118	0xbf175916	-0.5912031
119	0x3d801572	0.0625409
120	0xbf14c7d1	-0.58117396
121	0x3ef4e626	0.4783184
122	0x3ec57d4d	0.3857216
123	0xbec40fd6	-0.38293332
124	0x3ed9ed72	0.4256397
125	0x3f05b899	0.522348
126	0xbf08b461	-0.53400236
127	0x3e89939a	0.26870424
128	0x3f0c2549	0.5474439
129	0x3efa8bec	0.48934877
130	0x3f05581c	0.5208757
131	0xbee01075	-0.43762556
132	0xbec78d53	-0.3897501
133	0xbed067b2	-0.40704113
134	0x3eb46973	0.352367
135	0x3f0e307d	0.5554274
136	0x3f1f2fe4	0.6218245
137	0x3e8e431a	0.2778557
138	0xbeb26288	-0.34840798
139	0xbe49f77c	-0.19723314
140	0x3eccf1e3	0.40028295
141	0xbe2950ef	-0.1653478
142	0x3efb9a54	0.4914118
143	0x3c005d79	0.007834786
144	0xbeca72a0	-0.39540577
145	0xbefe2cf5	-0.49643674
146	0x3e914c0d	0.28378335
147	0x3f043d06	0.51655614
148	0x3e0f9dd3	0.14025049
149	0xbec38369	-0.38186195
150	0xbee612fe	-0.44936365
151	0xbed7b7e6	-0.4213249
152	0xbf0cc05e	-0.5498103
153	0x3ee8af4b	0.45446238
154	0x3e88d9a6	0.26728553
155	0xbe6cf272	-0.2313936
156	0xbe82d4fb	-0.25553116
157	0x3ec6a162	0.38795
158	0x3ec19505	0.37809005
159	0xbefb4aa8	-0.49080396
160	0x3e80cf51	0.2515817
161	0xbec42cd5	-0.38315454
162	0x3ea176e2	0.31536013
163	0x3e6b6516	0.2298778
164	0x3ed537a6	0.4164402
165	0x3d925617	0.071453266
166	0xbdb66392	-0.0890571
167	0xbf0464fc	-0.5171659
168	0xbea6ad2f	-0.32554004
169	0xbee18701	-0.44048312
170	0xbea1a75d	-0.31573
171	0xbed53ce3	-0.41648015
172	0x3eaa6825	0.3328258
173	0x3e9cd091	0.30627874
174	0x3edc648e	0.43045467
175	0x3e8efa9f	0.27925584
176	0x3ef51237	0.4786546
177	0x3ec9c7f4	0.39410365
178	0xbf0cfbb5	-0.55071574
179	0x3ea1aa0a	0.31575042
180	0x3ec5175e	0.3849439
181	0xbeb6fd4a	-0.3574012
182	0x3e86d74e	0.2633614
183	0xbe64ab0e	-0.22330877
184	0x3e8bf77e	0.2733726
185	0xbe253fef	-0.1613767
186	0xbae3685d	-0.0017349828
187	0xbdc18492	-0.09449114
188	0x3e825d1e	0.25461668
189	0x3ecfd853	0.4059473
190	0xbc700218	-0.014648937
191	0x3e994e4c	0.29942548
192	0x3e4bd616	0.19905886
193	0xbdf19b22	-0.11797167
194	0xbda36790	-0.07978737
195	0x3e3aee6f	0.18255018
196	0xbf2c3dda	-0.6728188
197	0xbddb841d	-0.10718558
198	0x3ea6be38	0.32567
199	0xbeb486d3	-0.35259113
200	0xbcc04d94	-0.023474492
201	0xbf22b957	-0.63564056
202	0xbfa08e0b	-1.2543348
203	0xbee4ba50	-0.44673395
204	0x3e42d7fa	0.19027701
205	0x3e952f78	0.29137778
206	0xbeadfa7e	-0.33980173
207	0xbf52ac56	-0.82294214
208	0x3e4094f7	0.18806826
209	0xbdabc575	-0.08387271
210	0x3ecc0e4b	0.39854655
211	0xbe12dd45	-0.1434222
212	0x3e09a636	0.1344231
213	0xbd75abe7	-0.059978392
214	0xbe369e06	-0.17833719
215	0xbe1d9631	-0.15389325
216	0xbf3c5530	-0.73567486
217	0xbf1e0682	-0.6172868
218	0x3dd70c71	0.1050042
219	0x3e555548	0.20833313
220	0xbe9b4653	-0.3032709
221	0xbebbe8ef	-0.36701152
222	0xbdf39019	-0.11892719
223	0xbeaaf00d	-0.3338627
224	0x3e138268	0.14405215
225	0x3c8d5d17	0.017256303
226	0xbe6151a5	-0.22003801
227	0xbf0cc355	-0.54985553
228	0xbf0fc2f5	-0.56156856
229	0x3e72242a	0.23646608
230	0xbef5b654	-0.47990668
231	0xbe05c417	-0.13063084
232	0x3e1a7bcf	0.15086292
233	0x3e095217	0.13410221
234	0x3da2d19e	0.079501376
235	0xbf2c28b8	-0.6724963
236	0x3eba0536	0.363321
237	0xbf0340a7	-0.51270527
238	0xbf063ee0	-0.5243969
239	0x3d1093e7	0.0352973

lstm.weight_hh_l0 f4 [240, 60]
0	0xbc96ff67	-0.018432332
1	0xbea17ff4	-0.31542933
2	0xbdd836f9	-0.1055736
3	0x3d988d00	0.074487686
4	0x3db35455	0.087563194
5	0xbc7de428	-0.015496291
6	0xbdb56e31	-0.08858908
7	0x3d2d3741	0.042289022
8	0x3e1361da	0.14392796
9	0x3ecc4c33	0.39901885
10	0x3d5367a0	0.051612496
11	0xbe31aa28	-0.17350066
12	0xbe09966f	-0.13436292
13	0xbe8122ed	-0.2522196
14	0x3eaa099c	0.33210456
15	0x3dcc103d	0.09964035
16	0xbf1b9c1b	-0.60785073
17	0x3e1a29c4	0.15054995
18	0xbe6e0353	-0.23243456
19	0xbea286ec	-0.31743562
20	0x3ef91b14	0.4865347
21	0xbf151981	-0.5824204
22	0xbd61a028	-0.055084378
23	0x3e45dda6	0.19322833
24	0xbe3b97a8	-0.18319571
25	0xbe62df4e	-0.22155496
26	0xbdcbcbaa	-0.09950955
27	0xbf157587	-0.5838246
28	0x3dc93dbf	0.0982623
29	0xbe13f928	-0.14450514
30	0xbe734a72	-0.23758867
31	0xbde1af30	-0.110197425
32	0x3ab7b617	0.0014016059
33	0x3db06f4c	0.08614978
34	0x3ec04b71	0.37557557
35	0xbeedb2a7	-0.46425363
36	0x3ef55d77	0.4792287
37	0x3dfdc854	0.12391725
38	0x3e35a97e	0.17740437
39	0xbe57c520	-0.21071291
40	0x3d8a7406	0.06760411
41	0xbb17e9d6	-0.0023180149
42	0xbd89cfff	-0.06729125
43	0x3e4b3d52	0.1984761
44	0x3e9afba1	0.30270103
45	0x3e64b4d1	0.22334601
46	0xbeac6fcb	-0.3367904
47	0x3ec93994	0.3930174
48	0x3f269fc8	0.65087557
49	0xbdf4e083	-0.11956885
50	0xbe1bd6ec	-0.15218705
51	0x3dc93f7f	0.09826564
52	0x3e71071d	0.2353787
53	0x3cf6dcea	0.030134637
54	0xbd114eee	-0.035475664
55	0x3cdcbfc6	0.026946913
56	0x3e39bd1a	0.18138543
57	0xbebc0698	-0.3672378
58	0x3f39b686	0.72544134
59	0x3e817fc9	0.25292805
60	0x3ce308ee	0.027714219
61	0xbe92fc74	-0.2870823
62	0xbd8ae9d5	-0.06782881
63	0xbeb1280b	-0.34600863
64	0xbce84f58	-0.028358147
65	0xbedf0166	-0.43555754
66	0x3e26f73a	0.16305247
67	0xbe058a42	-0.13041022
68	0xbe9ae68f	-0.30254027
69	0xbe676fc9	-0.22601236
70	0xbde5c63e	-0.11219452
71	0x3e206a44	0.15665537
72	0x3e2192b4	0.15778619
73	0x3ddf9ef9	0.109189935
74	0x3d3bb7ad	0.045829464
75	0xbe5793b0	-0.21052432
76	0xbd09a8c1	-0.033608202
77	0xbec43741	-0.38323405
78	0x3dfe9f87	0.12432771
79	0xbe89a305	-0.26882187
80	0x3e7bf82a	0.24606386
81	0xbe0efe4c	-0.13964194
82	0x3d5f311b	0.05449019
83	0xbe121a29	-0.14267792
84	0x3e25fa26	0.16208705
85	0xbcee6d6f	-0.029104916
86	0x3f09a9c3	0.5377466
87	0x3e3a0db6	0.18169293
88	0xbe417946	-0.18893918
89	0x3e10309f	0.14081047
90	0xbd5bb34f	-0.0536378
91	0x3e589243	0.21149544
92	0x3e80c25c	0.25148284
93	0xbe5e69c1	-0.2172003
94	0xbe241eeb	-0.1602742
95	0xbe23df5a	-0.1600317
96	0x3dc683b5	0.0969309
97	0x3e847792	0.25872475
98	0x3d34bd28	0.044125706
99	0xbab8223b	-0.0014048287
100	0xbeb45606	-0.3522188
101	0x3d84125c	0.06448814
102	0xbe139a08	-0.14414227
103	0x3dd575de	0.10422872
104	0xbdac2441	-0.084053524
105	0xbe8f1bac	-0.279508
106	0xbde0cbcd	-0.10976372
107	0x3cbbc032	0.022918794
108	0x3d6aff12	0.05737216
109	0xbd5ba226	-0.053621434
110	0x3d932858	0.07185429
111	0xbd8e3439	-0.069435544
112	0xbd63b247	-0.05558994
113	0xbe3ddd83	-0.18541531
114	0xbe647662	-0.22310784
115	0xbd9475b4	-0.072490126
116	0xbe095a62	-0.13413385
117	0x3d843afa	0.064565614
118	0xbd5459c5	-0.051843423
119	0xbe12e9b3	-0.14346962
120	0x3ea4f629	0.32219055
121	0xbedf1f61	-0.43578628
122	0x3b2d9e53	0.0026492074
123	0x3e04f773	0.1298502
124	0xbd7c7ca4	-0.061642304
125	0xbec31cc0	-0.38107872
126	0x3e2ccf7d	0.16876025
127	0xbe7892ff	-0.24274825
128	0xbe947133	-0.28992614
129	0xbe0cff14	-0.1376918
130	0xbe34e325	-0.17664774
131	0x3e0fecc0	0.14055157
132	0x3db9b759	0.09068174
133	0x3e132fd8	0.1437372
134	0xbd878145	-0.06616453
135	0xbf0b95e5	-0.54525596
136	0xbe7f0606	-0.24904642
137	0xbe1d4584	-0.1535855
138	0x3e54f887	0.2079793
139	0xbdd846c9	-0.10560376
140	0xbdf14b54	-0.11781946
141	0x3e10fe27	0.14159451
142	0xbe94747e	-0.28995126
143	0xbd56e953	-0.05246861
144	0xbb6b1891	-0.0035872797
145	0x3c74129a	0.014897013
146	0x3c2a0168	0.010376312
147	0xbe2ff52e	-0.17183372
148	0x3ef93fcb	0.48681483
149	0x3e24e87c	0.16104311
150	0x3e806982	0.25080496
151	0x3df090fc	0.117464036
152	0x3e7b8883	0.24563794
153	0xbd9c215d	-0.07623551
154	0xbd4b5a3b	-0.049646597
155	0xbd998ed6	-0.07497947
156	0xbeb365d3	-0.35038623
157	0xbc53538e	-0.012898339
158	0x3c3f81a4	0.011688624
159	0x3ec4c454	0.38431036
160	0xbd80017e	-0.062502846
161	0x3dea0001	0.11425782
162	0xbe278f65	-0.16363294
163	0x3e1bf9e3	0.15232043
164	0xbda0405b	-0.07824775
165	0xbdd0945d	-0.10184548
166	0xbf102dda	-0.56319964
167	0x3daff165	0.08590964
168	0x3df31ade	0.11870359
169	0x3dbff9ee	0.09373842
170	0x3b197920	0.0023418143
171	0x3e9d4e5a	0.3072384
172	0xbd9b158d	-0.0757247
173	0xb88e6c03	-6.7912064e-05
174	0xbe48e251	-0.19617583
175	0xbc8d2c4a	-0.017233033
176	0xbdd482ff	-0.10376548
177	0x3dc48e63	0.095974706
178	0x3de11c3c	0.109917134
179	0x3e197ba1	0.14988567
180	0xbe31afab	-0.17352168
181	0x3e4dcf1c	0.20098537
182	0x3e2f4aac	0.17118329
183	0x3e15afaf	0.14617799
184	0xbd3356ca	-0.04378394
185	0x3dc45051	0.09585632
186	0x3f4ec19e	0.80764186
187	0xbe40ca74	-0.1882723
188	0x3d6158ef	0.055016454
189	0x3d65fba7	0.056148198
190	0xbef81451	-0.48453
191	0x3d993e02	0.0748253
192	0x3e47ca1e	0.19510695
193	0x3d9ae2d5	0.07562796
194	0xbef33db5	-0.47508016
195	0x3d8765fd	0.066112496
196	0x3c89afe9	0.016807513
197	0x3d3b44aa	0.04571978
198	0x3df889c3	0.12135651
199	0x3e9a732c	0.30165994
200	0xbe80999a	-0.2511719
201	0xbdb9f192	-0.09079279
202	0xbe27502f	-0.16339181
203	0xbd9d34c6	-0.07676081
204	0x3e2c96b8	0.1685437
205	0x3d8579dd	0.06517384
206	0xbede525f	-0.4342222
207	0xbe026dde	-0.12737224
208	0x3e810065	0.25195614
209	0x3eb7c5a7	0.35892984
210	0x3e1df0e0	0.15423918
211	0x3ec28281	0.37990192
212	0x3e3c4520	0.18385744
213	0xbe945988	-0.28974557
214	0xbe1c6aff	-0.15275191
215	0x3dd0c7f9	0.10194392
216	0x3e746ac6	0.23868856
217	0xbe3e4b79	-0.18583478
218	0xbeafa658	-0.34306598
219	0x3e05cb13	0.13065748
220	0x3e2fa33d	0.17152114
221	0xbe0f2be0	-0.1398158
222	0xbd9a17dc	-0.07524082
223	0xbe401a80	-0.18760109
224	0xbdae12a2	-0.08499648
225	0xbd1a016a	-0.037599005
226	0x3db91a0c	0.09038171
227	0xbe03efd8	-0.12884462
228	0x3ebe0a70	0.37117338
229	0x3f0a27a5	0.5396674
230	0xbcc8b58c	-0.02450063
231	0x3d9b3089	0.07577617
232	0xbef90457	-0.48636124
233	0x3cca21a4	0.024674244
234	0xbc4cb473	-0.012494194
235	0xbe2c2c75	-0.16813834
236	0xbd13e7d3	-0.036109757
237	0xbe5907a0	-0.21194315
238	0x3e8dfba5	0.27731052
239	0xbea807c5	-0.32818428
240	0x3e278d4d	0.16362496
241	0xbe68457f	-0.2268276
242	0xbe0ec789	-0.13943304
243	0x3d409a90	0.047022402
244	0xbe159e14	-0.14611083
245	0xbe31cae8	-0.17362559
246	0x3d004fdf	0.03132617
247	0xbdf0a8e5	-0.11750964
248	0xbe2eb8a1	-0.17062618
249	0xbe45d2ad	-0.19318648
250	0xbdcb33c8	-0.09921986
251	0x3dbb640b	0.09149941
252	0xbbd5cca1	-0.006524638
253	0x3e4a3951	0.19748427
254	0xbca72eb4	-0.020408012
255	0xbe03d8f9	-0.12875737

lstm.bias_ih_l0 f4 [240]
0	0x3f0313b7	0.5120196
1	0x3e044e4f	0.12920497
2	0x3d204212	0.03912551
3	0xbe7806fd	-0.24221416
4	0xbcfd1c95	-0.030897418
5	0xbd0915f3	-0.033468198
6	0x3e48a135	0.19592746
7	0xbe0b5dd5	-0.13610013
8	0x3ec4920b	0.38392672
9	0x3e32138a	0.17390266
10	0x3eaa2437	0.33230755
11	0x3debd0d2	0.11514439
12	0x3dae31e8	0.085056126
13	0xbdca2b82	-0.0987158
14	0xbe84fde6	-0.2597496
15	0x3e5a2371	0.21302582
16	0xbe1d4f00	-0.15362167
17	0xbed633b6	-0.41836327
18	0xbd9b3e5e	-0.07580255
19	0xbeb17a04	-0.34663403
20	0xbe39a843	-0.18130593
21	0xbf36ff1e	-0.7148303
22	0xbf68221b	-0.9067704
23	0xbf956362	-1.1670954
24	0xbe393a9e	-0.18088767
25	0x3e1e9a51	0.15488555
26	0xbed84ab4	-0.42244494
27	0xbd0b27b9	-0.03397343
28	0xbd8ea6a0	-0.06965375
29	0xbe2ec7ac	-0.17068356
30	0xbd4db2fe	-0.05021953
31	0xbe2c32f2	-0.16816309
32	0x3e6d1517	0.23152576
33	0xbd0660c7	-0.032807138
34	0xbecf4edb	-0.4048985
35	0xbeeea13f	-0.46607396
36	0xbead4087	-0.33838293
37	0xbea46b9d	-0.32113352
38	0xbe01cf38	-0.12676704
39	0x3e66f2c1	0.22553541
40	0xbf05ac02	-0.5221559
41	0xbe6f6729	-0.23379196
42	0xbdaaf7b4	-0.08348027
43	0xbf34940b	-0.70538396
44	0xbe88dda5	-0.267316
45	0xbe24b5d8	-0.16084993
46	0xbea7b84a	-0.3275779
47	0x3eab8caa	0.33505756
48	0xbe6d7d88	-0.23192418
49	0x3e000866	0.12503204
50	0xbf06f058	-0.52710485
51	0x3e55b3a9	0.20869316
52	0xbe2bd550	-0.16780591
53	0xbdb6f080	-0.089325905
54	0xbdcab9de	-0.098987326
55	0xbf34211a	-0.7036301
56	0x3e33e307	0.17567073
57	0xbed6445e	-0.41849035
58	0xbe483a4b	-0.19553487
59	0xbe8e32fa	-0.27773267
60	0xbe0af32a	-0.13569322
61	0xbe4f3c1e	-0.20237777
62	0x3e51c1a7	0.20484029
63	0x3d94a93d	0.07258842
64	0xbe666fb3	-0.22503547
65	0xbea90a9d	-0.3301591
66	0xbeae183f	-0.34002873
67	0x3e349c6b	0.17637794
68	0x3def77de	0.11692785
69	0xbe1dbbeb	-0.15403716
70	0xbe9f6ba4	-0.3113681
71	0x3d31f7e3	0.043449294
72	0x3e0c7e92	0.13720158
73	0xbea32fa8	-0.31872296
74	0xbec0c329	-0.37648895
75	0x3e8cebbe	0.27523607
76	0xbd42ab38	-0.04752657
77	0xb83ec930	-4.54869e-05
78	0x3dfb9102	0.122835174
79	0xbea1106f	-0.3145785
80	0xbedd4919	-0.43219832
81	0xbf5d3f1e	-0.86424434
82	0xbf5d1d21	-0.8637257
83	0xbf2a186c	-0.66443515
84	0xbe626a49	-0.22110857
85	0xbe85e9ca	-0.2615493
86	0xbe59c593	-0.21266775
87	0xbebfae4c	-0.37437665
88	0x3e91de35	0.28489843
89	0xbeba7a82	-0.3642159
90	0x3aea55a4	0.0017878306
91	0xbeb7985f	-0.35858437
92	0xbe3732ca	-0.17890468
93	0xbe21d849	-0.15805162
94	0xbf0092c2	-0.50223935
95	0xbecba1be	-0.39771837
96	0xbedce7bb	-0.43145546
97	0xbf09ebd9	-0.538755
98	0xbe9a1e92	-0.30101448
99	0xbe2b1e1b	-0.16710703
100	0xbe035afc	-0.12827677
101	0xbe31d1df	-0.17365216
102	0xbeabe7d2	-0.33575302
103	0xbf4875bc	-0.7830465
104	0xbedd5eb5	-0.43236318
105	0x3c3054b2	0.01076238
106	0xbddda2a8	-0.1082204
107	0xbe2c3a3e	-0.16819093
108	0xbee90cc2	-0.45517546
109	0xbea8c2b0	-0.32961035
110	0xbf696464	-0.9116881
111	0xbdb97635	-0.09055749
112	0xbe58c022	-0.21167043
113	0x3e88d918	0.2672813
114	0xbe7dfc86	-0.24803361
115	0xbf0781af	-0.52932256
116	0x3c9d23de	0.019182142
117	0xbf06ebfd	-0.5270384
118	0xbf19716a	-0.5993868
119	0xbe9863d9	-0.29763678
120	0x3d960219	0.07324619
121	0xbdf50f6f	-0.11965834
122	0xbd9622ec	-0.073308796
123	0x3cc483c3	0.02398861
124	0xbe123eee	-0.14281818
125	0xbc49bb95	-0.012312789
126	0x3df7d296	0.12100713
127	0x3c99201d	0.01869207
128	0xbe0d6726	-0.1380888
129	0xbc5a9de3	-0.013343307
130	0xbcb9f8b5	-0.0227016
131	0x3da895ca	0.08231695
132	0x3d926d1f	0.071497194
133	0xbcfe3284	-0.031029947
134	0x3a94c484	0.001135007
135	0xbc5caf22	-0.013469489
136	0x3d6dee58	0.05808863
137	0x3c966c03	0.01836205
138	0x3d0ac55a	0.033879615
139	0x3d10b331	0.03532714
140	0xbd2a34ef	-0.041554388
141	0x3c35cf9e	0.011096863
142	0xbde0f1f4	-0.10983649
143	0xbd9536ed	-0.07285867
144	0x3df621b0	0.12018144
145	0x3de98419	0.11402149
146	0xbd8601a0	-0.06543279
147	0xbdfa6673	-0.12226572
148	0x3d5a13be	0.053241484
149	0xbccfe762	-0.025378887
150	0x3dab15f7	0.08353799
151	0xbbd431ef	-0.006475679
152	0x3d45e2e6	0.04831209
153	0xbd072afb	-0.032999974
154	0x3d398bc3	0.045299303
155	0x3d8a7cfa	0.06762119
156	0x3d9730dd	0.07382367
157	0x3c8e730b	0.017388841
158	0xbdcefbbb	-0.101066075
159	0xbb3a7fd7	-0.0028457546
160	0xbd232af4	-0.039835885
161	0x3ca6c9d6	0.020359915
162	0xbc9b9da9	-0.018996077
163	0xbd4089e9	-0.04700652
164	0x3d845e8b	0.06463345
165	0xbc955dae	-0.018233147
166	0x3cd5594f	0.026043562
167	0x3d178e3e	0.037000887
168	0x3ce55bba	0.02799784
169	0x3c95152a	0.018198568
170	0x3ca5dfc8	0.020248309
171	0xbcb5676e	-0.022144046
172	0xbcf0cd3f	-0.029394744
173	0xbe19cba2	-0.15019086
174	0x3d43875e	0.047736518
175	0xbe001261	-0.12507011
176	0xbd4f2a16	-0.050577246
177	0xbd9692f2	-0.07352246
178	0x3d968403	0.07349398
179	0xbcfd91ea	-0.030953366
180	0x3f12d1c6	0.5735134
181	0xbcecf57f	-0.028925655
182	0x3d7d9465	0.0619091
183	0xbd29ad2b	-0.04142491
184	0x3deae0d7	0.11468666
185	0xbdb90d4f	-0.090357415
186	0x3ea13ce4	0.31491768
187	0xbe558e13	-0.20854978
188	0x3ed102e8	0.4082253
189	0x3d915e74	0.07098094
190	0x3e194d25	0.14970835
191	0x3cf759ee	0.030194249
192	0x3e173a04	0.14768225
193	0xbe37547e	-0.17903325
194	0xbec8ed7f	-0.39243695
195	0x3e36690c	0.1781351
196	0x3dc38cef	0.09548365
197	0xbe7f5928	-0.24936354
198	0xbe579332	-0.21052244
199	0xbf0f96a6	-0.56089246
200	0xbd91b4ff	-0.071146004
201	0xbf3a9cda	-0.72895586
202	0xbf56c6a5	-0.8389686
203	0xbf85fbb6	-1.0467441
204	0xbe01a64c	-0.12661093
205	0x3e1b2b7d	0.15153308
206	0xbf1cf87f	-0.61316675
207	0xbd0215b2	-0.03175897
208	0x3d3b5fd8	0.0457457
209	0xbc174377	-0.0092323935
210	0x3db64b67	0.089011006
211	0xbe2d6c6e	-0.16935894
212	0x3eac6fe3	0.33679113
213	0x3b3bafd1	0.002863873
214	0xbefcaa48	-0.49348664
215	0xbf1268f5	-0.571914
216	0xbeef94b8	-0.4679315
217	0xbee6425b	-0.449725
218	0xbda84794	-0.082167774
219	0x3e54a8a1	0.20767452
220	0xbecec714	-0.4038626
221	0xbec01f3f	-0.3752384
222	0xbe0e80fb	-0.1391639
223	0xbf562248	-0.8364606
224	0xbe10553b	-0.14095013
225	0xbe74c4f7	-0.23903261
226	0xbeba9e3a	-0.36448842
227	0x3e15114c	0.1455738
228	0xbee329fb	-0.44367966
229	0x3d034211	0.032045428
230	0xbf2fa7bc	-0.6861532
231	0x3e048c1f	0.12944077
232	0xbe7e2469	-0.24818577
233	0x3c33e453	0.01097973
234	0xbd7abfb3	-0.061217975
235	0xbf1aa033	-0.60400695
236	0x3dd76e66	0.10519104
237	0xbebb2abc	-0.3655604
238	0xbe830409	-0.25589016
239	0xbe939641	-0.28825572

lstm.bias_hh_l0 f4 [240]
0	0x3ef55f60	0.47924328
1	0x3cca8d82	0.02472568
2	0x3d71ef18	0.05906591
3	0xbe670d27	-0.22563611
4	0x3e068b9b	0.13139193
5	0xbdb90648	-0.09034401
6	0x3eac5d34	0.33664858
7	0xbd156a77	-0.036478486
8	0x3ea309d7	0.31843445
9	0x3e229ebd	0.15880866
10	0x3e6fd127	0.23419629
11	0x3d98601e	0.07440208
12	0x3d3d347d	0.046192635
13	0xbe19ddec	-0.15026063
14	0xbe705282	-0.23468974
15	0x3e6b1d61	0.22960426
16	0xbd3883f7	-0.045047726
17	0xbed8ea46	-0.42366236
18	0xbe65cad7	-0.22440659
19	0xbef9b05c	-0.48767364
20	0xbd813673	-0.063092135
21	0xbf6dcff6	-0.9289545
22	0xbf6423a5	-0.8911689
23	0xbfa0a127	-1.254918
24	0x3d26dc61	0.040737513
25	0x3e1df457	0.1542524
26	0xbee5ff91	-0.44921544
27	0xbd4d1900	-0.05007267
28	0xbdf3de92	-0.11907686
29	0xbd6c422a	-0.057680286
30	0xbd1432c1	-0.036181215
31	0xbd81d6fb	-0.063398324
32	0x3ecafb94	0.39645064
33	0x3cc0f145	0.023552546
34	0xbf0009cc	-0.5001495
35	0xbf0a7a30	-0.54092693
36	0xbee55265	-0.44789425
37	0xbe9b3194	-0.30311263
38	0x3d8de60c	0.069286436
39	0x3e8fc0b1	0.280767
40	0xbed15294	-0.40883315
41	0xbe8c2b05	-0.2737657
42	0xbe8e5b61	-0.27804092
43	0xbf532bfb	-0.82488984
44	0xbe324004	-0.17407233
45	0xbe11d7d1	-0.14242484
46	0xbec96dd8	-0.39341617
47	0x3dfd89c3	0.123797916
48	0xbeb853c5	-0.3600141
49	0x3e39c312	0.1814082
50	0xbf011b5c	-0.5043237
51	0x3d1b7e30	0.03796214
52	0xbdc2c546	-0.09510283
53	0xbdc51a7b	-0.096241914
54	0x3d00e95f	0.03147256
55	0xbf2f2052	-0.6840869
56	0x3e265ef2	0.16247156
57	0xbee5d694	-0.44890273
58	0xbe84b9ec	-0.25923097
59	0xbe4ed532	-0.20198515
60	0xbd5fc382	-0.05462981
61	0xbced7180	-0.028984785
62	0x3d2c2823	0.042030465
63	0xbb9d7040	-0.004804641
64	0xbe58c348	-0.21168244
65	0xbe2a9458	-0.16658151
66	0xbe999104	-0.2999345
67	0x3e712ddb	0.23552649
68	0x3e077849	0.13229479
69	0x3ccb8269	0.024842458
70	0xbe6df8c5	-0.2323943
71	0x3bdbe3be	0.0067104986
72	0xbd4ba778	-0.049720258
73	0xbe910d66	-0.28330535
74	0xbe22adbe	-0.1588659
75	0x3e51ee04	0.20500952
76	0xbb0e721b	-0.0021735493
77	0xbd8ecb61	-0.06972385
78	0x3e0dfb47	0.13865386
79	0xbe7d5295	-0.24738534
80	0xbeb7a5d5	-0.35868707
81	0xbf3ad1cb	-0.7297637
82	0xbf788fdf	-0.9709453
83	0xbf400c86	-0.7501911
84	0xbe7a46d9	-0.24441089
85	0xbe6bb792	-0.23019245
86	0xbe6f0088	-0.23340046
87	0xbece55d4	-0.40299857
88	0x3ef8462f	0.48491046
89	0xbe8f187e	-0.27948374
90	0x3df11ed8	0.11773461
91	0xbee989c9	-0.45612934
92	0xbe15383a	-0.1457223
93	0xbebfff01	-0.3749924
94	0xbeea71a5	-0.4578983
95	0xbf1003c6	-0.5625576
96	0xbee818b9	-0.45331362
97	0xbef85d39	-0.48508623
98	0xbeb42988	-0.35187936
99	0xbc2761f3	-0.010216224
100	0xbe85608d	-0.26050225
101	0xbe6f3a16	-0.23362002
102	0xbe06b132	-0.13153532
103	0xbf607d9d	-0.8769167
104	0xbecb77d4	-0.3973986
105	0x3d3bd86a	0.045860685
106	0xbd15bf11	-0.03655917
107	0xbe8f24d6	-0.2795779
108	0xbea9ce95	-0.33165422
109	0xbddc7bf8	-0.10765833
110	0xbf6cbd80	-0.92476654
111	0xbc898708	-0.01678802
112	0xbead9d37	-0.33909008
113	0x3e99c9c5	0.3003675
114	0xbe276b9d	-0.16349645
115	0xbed78dfc	-0.42100513
116	0xbe04e9d5	-0.12979825
117	0xbf0366c2	-0.5132867
118	0xbf04a576	-0.51814973
119	0xbef17f57	-0.47167465
120	0x3d307e32	0.0430891
121	0x3b8f665a	0.004376215
122	0x3d35be86	0.04437115
123	0x3ba3e916	0.0050021512
124	0x3d23b925	0.03997149
125	0xbdda547d	-0.10660646
126	0xbcd799a6	-0.026318382
127	0xbdcad60c	-0.099041075
128	0x3ba7a6f2	0.005116337
129	0xbdc152ca	-0.09439619
130	0xbda240f2	-0.079225436
131	0xbbf9eee0	-0.007627353
132	0x3cb42dc4	0.021994479
133	0x3e04d85e	0.12973163
134	0xbd7ee64b	-0.062231343
135	0xbd8f0516	-0.06983392
136	0xbe0baa43	-0.13639168
137	0xbda75cb8	-0.081719816
138	0x3e09ccf5	0.13457091
139	0xbc90f351	-0.017694147
140	0xbc72b1f7	-0.014812938
141	0x3c7b0db9	0.015323096
142	0x3d586c51	0.052837674
143	0x3d9a94ea	0.07547934
144	0xbd5fc91c	-0.054635152
145	0xbbf2dd01	-0.0074115996
146	0x3c4e5f5f	0.01259598
147	0x3cebd8be	0.028789874
148	0xbd894bb3	-0.067038916
149	0x3dda416a	0.10657008
150	0x3c8a1de4	0.016859956
151	0x3dccfe53	0.10009446
152	0x3d6446a9	0.05573145
153	0xbda31197	-0.07962339
154	0xbdb07340	-0.08615732
155	0xbcecbc32	-0.028898332
156	0x3c4f570a	0.012655029
157	0xbd89ce12	-0.06728758
158	0x3d06da08	0.032922775
159	0x3da73f2e	0.081663474
160	0xbafd3a1e	-0.0019319688
161	0x3d80f244	0.062962085
162	0xbd8ba353	-0.06818261
163	0x3c38e652	0.011285381
164	0xbe12ea22	-0.14347127
165	0xbc7e9347	-0.015538043
166	0x3cb752c5	0.022378335
167	0x3dc87d34	0.097895056
168	0x3d2357ed	0.039878774
169	0x3d77c843	0.06049372
170	0x3d434609	0.047674213
171	0x3df15c65	0.11785201
172	0xbd265f0e	-0.040617995
173	0xbcef47c9	-0.029209035
174	0xbe0951fb	-0.1341018
175	0x3d581047	0.0527499
176	0xbdc2b8a5	-0.095078744
177	0xbcb4e59f	-0.022082148
178	0x3cd05859	0.025432752
179	0xbd156d87	-0.036481407
180	0x3ef2856a	0.47367412
181	0x3dcb6712	0.099317685
182	0x3d97c4ac	0.07410559
183	0xbe4f21e8	-0.20227778
184	0xbd836599	-0.064158626
185	0xbd6c8984	-0.057748333
186	0x3e4a7f5b	0.19775145
187	0xbe2f0825	-0.1709295
188	0x3e80f069	0.25183418
189	0x3decf41f	0.1157
190	0x3eb7acdc	0.3587407
191	0x3ddaafb1	0.10678042
192	0x3e1c12b9	0.15241517
193	0xbe1e482c	-0.15457219
194	0xbea47089	-0.32117108
195	0x3e8c48d6	0.2739932
196	0x3dfedc27	0.124443345
197	0xbe5529bc	-0.20816702
198	0xbd9bc2f4	-0.07605544
199	0xbecf7311	-0.40517476
200	0xbdc237e1	-0.09483314
201	0xbf4d05d8	-0.8008704
202	0xbf476ca2	-0.77900136
203	0xbf9c45ba	-1.2208779
204	0xbd18b186	-0.037278675
205	0xbc71774a	-0.014737913
206	0xbee3b0a0	-0.44470692
207	0x3cae1db3	0.021254396
208	0xbdde976a	-0.10868724
209	0xbe4238ca	-0.18966976
210	0xbcdd69e7	-0.027028037
211	0x3c7dd18c	0.015491854
212	0x3ef45004	0.47717297
213	0xbbbcd27a	-0.0057623954
214	0xbece6463	-0.40310964
215	0xbf1a4966	-0.6026825
216	0xbed920fd	-0.4240798
217	0xbed990a4	-0.42493165
218	0xbdc52742	-0.096266285
219	0x3e9bfcf1	0.30466416
220	0xbed974d5	-0.42471948
221	0xbeca081f	-0.3945932
222	0xbe9bb7f7	-0.30413792
223	0xbf63c5a1	-0.8897343
224	0xbdc4abc9	-0.09603078
225	0xbe20236a	-0.1563851
226	0xbea35fde	-0.31909078
227	0x3e53053b	0.20607464
228	0xbe626538	-0.22108924
229	0x3e11ebcc	0.14250106
230	0xbf1cdd56	-0.6127523
231	0x3d41be93	0.047300886
232	0xbd78432e	-0.060610943
233	0xbe05a05c	-0.13049453
234	0x3e10bda8	0.14134848
235	0xbf21a377	-0.6314005
236	0x3e3b6370	0.18299651
237	0xbeed0099	-0.46289518
238	0xbe4be4f3	-0.19911556
239	0xbe2faaf5	-0.17155059

lstm.weight_ih_l1 f4 [240, 60]
0	0xbeae82bd	-0.3408412
1	0x3e334d8c	0.1751005
2	0xbe8fbe6f	-0.28074977
3	0xbd5381c6	-0.051637433
4	0x3e97021a	0.2949379
5	0x3eaf9543	0.34293565
6	0xbea5ffa0	-0.3242159
7	0x3e8a768e	0.27043575
8	0x3e9aaa64	0.30208123
9	0x3d37abcc	0.044841573
10	0x3f1214cb	0.5706298
11	0xbe2c70fe	-0.16839978
12	0xbe8d77e8	-0.27630544
13	0xbee1200e	-0.43969768
14	0x3eab8e75	0.33507124
15	0x3e472322	0.19446996
16	0xbc654c2a	-0.01399521
17	0x3e5b7aa3	0.21433501
18	0xbe90e76e	-0.28301567
19	0xbe5990be	-0.21246621
20	0x3ef5bdca	0.4799636
21	0xbd7c160f	-0.061544474
22	0x3dd2bb76	0.102896616
23	0x3de9e11b	0.114198886
24	0xbeb039d5	-0.34419122
25	0xbe4d4bd0	-0.20048451
26	0xbc0c7c4d	-0.0085745575
27	0x3e38974d	0.18026467
28	0xbe167d10	-0.14696145
29	0xbe66dd57	-0.22545372
30	0xbe85969f	-0.26091477
31	0xbe5b824e	-0.21436426
32	0xbec97291	-0.3934522
33	0x3f0011b0	0.5002699
34	0x3ead3ad9	0.3383396
35	0xbdaa2984	-0.083087
36	0x3df6d078	0.12051481
37	0x3e9790a7	0.29602548
38	0x3e832370	0.25612974
39	0xbe1588d3	-0.14602976
40	0x3dc524dd	0.09626172
41	0xbe4db73d	-0.20089431
42	0x3e9b3595	0.30314317
43	0x3e074c86	0.13212785
44	0x3ead526e	0.3385195
45	0x3e3bd091	0.1834128
46	0x3da66b2c	0.0812591
47	0xbebb1c8a	-0.3654521
48	0xbe3dd51a	-0.18538323
49	0xbeaf6339	-0.34255388
50	0xbece5a39	-0.4030321
51	0xbe6c79cf	-0.23093341
52	0x3e627ec1	0.22118665
53	0x3ee2def1	0.44310716
54	0x3e3422c7	0.17591392
55	0xbdf10525	-0.11768559
56	0x3ed4731e	0.41494077
57	0x3e30a7eb	0.17251556
58	0xbde0e418	-0.109810054
59	0x3e818e14	0.2530371
60	0x3faaf88a	1.3357098
61	0xbf89033f	-1.0704116
62	0xbf16a6bd	-0.5884817
63	0x3f0892c2	0.53348935
64	0xbf831d08	-1.0243235
65	0xbe9dc7d4	-0.3081652
66	0x3efab126	0.4896328
67	0x3de3eef7	0.11129563
68	0xbf68aee5	-0.9089187
69	0xbe3d0e90	-0.18462586
70	0xbf30ff58	-0.69139624
71	0x3fb52b46	1.4153831
72	0x3efd58f5	0.4948193
73	0x3e94e700	0.2908249
74	0xbe827cda	-0.2548588
75	0xbf14e661	-0.5816403
76	0xbf1e51be	-0.6184348
77	0x3ead9e74	0.33909953
78	0x3f504fb9	0.8137165
79	0x3eb6b640	0.3568592
80	0xbf121842	-0.57068264
81	0xbeb34d61	-0.35019973
82	0xbec879a7	-0.39155313
83	0xbe09368e	-0.13399717
84	0x3edd22e0	0.4319067
85	0x3f0ccee8	0.55003214
86	0xbe284add	-0.16434808
87	0xbf53d609	-0.82748467
88	0x3defcd3b	0.117090665
89	0x3f05ef91	0.52318674
90	0x3f9e7043	1.237801
91	0x3eff1a07	0.49824545
92	0x3f9833bf	1.1890792
93	0xbf37759e	-0.71663845
94	0xbe42a9f7	-0.19010149
95	0x3e99309d	0.29919901
96	0x3e5a5677	0.21322046
97	0xbcdfb404	-0.027307518
98	0xbedd7def	-0.43260142
99	0x3f9523d2	1.1651556
100	0xbcbea9b7	-0.023274286
101	0x3f1a994c	0.6039016
102	0xbf3d048d	-0.7383507
103	0xbeca4929	-0.39508942
104	0xbe1abbdb	-0.15110724
105	0x3f04c659	0.51865155
106	0xbee4f5a3	-0.44718656
107	0x3f6c7ff1	0.92382723
108	0x3e024a82	0.12723735
109	0x3f287480	0.65802765
110	0x3e6bf981	0.23044397
111	0x3f2275b6	0.6346086
112	0xbe80b4c1	-0.25137904
113	0xbe22c024	-0.15893608
114	0xbfc707bf	-1.5549239
115	0xbe87c5cc	-0.26518095
116	0xbf52e13b	-0.82374924
117	0xbed47a16	-0.41499394
118	0x3f09c74f	0.53819746
119	0xbeac1a16	-0.33613652
120	0xbe143493	-0.1447318
121	0x3ee0b9d0	0.43891764
122	0x3d385f01	0.045012478
123	0x3c24a8c6	0.010050004
124	0x3e2ca17d	0.16858478
125	0x3f190a5d	0.5978144
126	0xbeedaeae	-0.46422333
127	0x3f05531d	0.52079946
128	0x3ec96dd9	0.3934162
129	0x3eac584d	0.33661118
130	0x3f1530f2	0.5827781
131	0x3decb113	0.11557212
132	0xbe60fc11	-0.21971156
133	0xbea7d34d	-0.32778397
134	0x3e9535b6	0.2914254
135	0x3e98db8c	0.29855
136	0x3e8dceb7	0.27696773
137	0x3f142b4f	0.57878584
138	0x3d845927	0.06462317
139	0x3d40e896	0.04709681
140	0x3e949d4d	0.2902626
141	0xbdb13f70	-0.08654678
142	0x3ccfa4f9	0.02534722
143	0x3e3d537e	0.18488881
144	0xbe6cf733	-0.23141174
145	0x3d596679	0.05307624
146	0x3df1a45b	0.117989264
147	0x3ec2d639	0.38054064
148	0x3e9283d9	0.28616217
149	0xbe5bd2c1	-0.21467115
150	0x3d2935b0	0.041310966
151	0xbea6c2c9	-0.32570484
152	0xbea80206	-0.32814044
153	0x3e816aca	0.25276786
154	0x3d66c6c5	0.056341905
155	0x3e10dd8f	0.14147018
156	0xbe4b14a4	-0.19832093
157	0x3e7e4fb5	0.24835093
158	0x3e722ae8	0.2364918
159	0xbe10209b	-0.14074938
160	0x3ec81109	0.39075497
161	0xbefdf6dc	-0.496024
162	0x3dbd61cd	0.0924717
163	0x3d297792	0.041373797
164	0x3f09901a	0.53735507
165	0x3f11253c	0.5669744
166	0xbdf1ac52	-0.118004456
167	0xbeb1342b	-0.34610114
168	0xbecd7109	-0.401253
169	0xbec01856	-0.37518567
170	0xbe843710	-0.2582326
171	0xbe377044	-0.1791392
172	0x3e5376a4	0.20650727
173	0x3ea46557	0.32108566
174	0x3cf16eb1	0.029471727
175	0x3e75a7bb	0.23989765
176	0x3df9cae1	0.12196899
177	0x3ecb2dc3	0.3968335
178	0xbe8f1dd6	-0.2795245
179	0x3c312c83	0.010813835
180	0x3e584e47	0.2112361
181	0x3dd9d8da	0.10637064
182	0xbd645065	-0.055740733
183	0x3dc6f1eb	0.09714111
184	0xbd502d0e	-0.050824217
185	0xbd95e159	-0.07318372
186	0xbd826e54	-0.063687
187	0x3e25bedb	0.16186087
188	0xbea6964a	-0.32536536
189	0xbe7297fe	-0.23690793
190	0x3e4e06d1	0.20119788
191	0x3ea52462	0.3225432
192	0xbe69f00e	-0.2284548
193	0xbd4402ce	-0.047854237
194	0x3e015c97	0.12632976
195	0xbea5ca36	-0.32380837
196	0x3e9b3fcd	0.30322114
197	0x3d8c27c8	0.06843525
198	0x3bff63d7	0.0077938843
199	0x3dce6386	0.10077576
200	0xbd9fdb91	-0.07805551
201	0xbdce51e6	-0.10074215
202	0x3dd12f8e	0.102141485
203	0x3bf26f50	0.0073985234
204	0xbd0c55d1	-0.03426153
205	0x3e7b80a0	0.24560785
206	0xbe8fef91	-0.28112462
207	0x3e9a64e1	0.3015509
208	0xbe578d7e	-0.21050069
209	0xbd8901ac	-0.06689772
210	0x3ea137dd	0.31487933
211	0x3bc4d691	0.0060070236
212	0x3d6f8a58	0.058481544
213	0x3d4fca22	0.05072988
214	0x3e0f44dc	0.13991112
215	0x3e19ef14	0.15032607
216	0x3da34063	0.07971265
217	0x3c82ad0a	0.015951652
218	0xbe04df72	-0.12975863
219	0xbd5e769f	-0.054312345
220	0xbd8f6381	-0.07001401
221	0xbe13bf7d	-0.14428516
222	0x3dd04c28	0.10170776
223	0x3e5e790f	0.21725868
224	0xbbc3404a	-0.0059585916
225	0x3d815b35	0.063162245
226	0xbdc85a7e	-0.09782885
227	0xbd935f11	-0.07195867
228	0xbe806e29	-0.25084046
229	0x3d642c20	0.055706143
230	0x3da5a2b0	0.08087671
231	0xbebff4b2	-0.37491375
232	0xba39e6ba	-0.0007091571
233	0x3e8a0f05	0.26964584
234	0xbeb347b1	-0.35015634
235	0x3e100c56	0.14067206
236	0x3d034a07	0.03205302
237	0xbdca9d85	-0.09893326
238	0xbe4f1f0e	-0.2022669
239	0xbe06f516	-0.1317943
240	0xbe59541c	-0.21223491
241	0x3d7c76f5	0.061636884
242	0xbe1096aa	-0.14119974
243	0xbe7f33cb	-0.24922101
244	0x3e46133c	0.19343275
245	0x3da8ca2f	0.082416885
246	0xbe8f7a9b	-0.28023228
247	0x3e7bcdac	0.24590176
248	0x3e7fde45	0.24987133
249	0x3e3151a7	0.17316304
250	0x3e89c7b7	0.26910183
251	0xbd88735b	-0.06662627
252	0xbe5563d4	-0.20838863
253	0xbe4a9ccc	-0.19786376
254	0x3e85b2f2	0.26113087
255	0x3e60c2e9	0.21949352

lstm.weight_hh_l1 f4 [240, 60]
0	0x3cd04efd	0.02542829
1	0x3dc0ad0f	0.09408008
2	0xbe3eb72a	-0.18624559
3	0x3e619e13	0.22032957
4	0xbceed864	-0.029155917
5	0xbe86cf78	-0.2633016
6	0x3dfa99e6	0.12236385
7	0x3d9d4e04	0.07680896
8	0x3e8fc6bd	0.28081313
9	0xbd1c0dae	-0.038098983
10	0xbe09351d	-0.13399167
11	0xbe88be06	-0.26707476
12	0xbe750b63	-0.23930125
13	0x3d2eef1a	0.042708494
14	0xbe07b094	-0.13250953
15	0xbc9e7633	-0.019343471
16	0xbe0832b2	-0.13300589
17	0x3d1d78f3	0.038445424
18	0xbdaf4c24	-0.085594445
19	0x3d6c2028	0.057647854
20	0xbedc9203	-0.43080148
21	0xbcbe2b14	-0.0232139
22	0x3eb03ac4	0.34419835
23	0x3e10ac6f	0.14128278
24	0xbe1cd6d1	-0.15316321
25	0x3daf7d65	0.08568839
26	0x3c96f5fa	0.018427838
27	0x3e7d204e	0.24719355
28	0x3ddaa3a1	0.10675741
29	0xbec61cf8	-0.38693976
30	0xbdbe3a35	-0.09288446
31	0x3e76dd48	0.2410785
32	0xbee46954	-0.4461161
33	0xbe3765e9	-0.1790997
34	0x3e93aad9	0.28841284
35	0x3e89c376	0.26906937
36	0xbe0d5c00	-0.13804626
37	0x3de3153f	0.11088037
38	0x3d7bc226	0.06146445
39	0xbd45ddaf	-0.048307117
40	0xbe690321	-0.227551
41	0xbd3dcf5f	-0.046340343
42	0xbdb91975	-0.09038059
43	0x3eafb303	0.34316263
44	0x3cf82eea	0.030295808
45	0xbdc6e1bd	-0.09711025
46	0xbe0aa3ee	-0.13539097
47	0xbe3108e2	-0.17288545
48	0xbe266cf1	-0.16252495
49	0xbdc1ca59	-0.09462423
50	0x3ca4b9d7	0.020108147
51	0x3e29d6f4	0.16585904
52	0xbd9ee176	-0.07757847
53	0xbec3ec8b	-0.38266405
54	0x3da15e0c	0.07879266
55	0xbe97f280	-0.296772
56	0x3eb4f716	0.35344762
57	0x3e90db92	0.2829252
58	0xbc8833bc	-0.016626231
59	0x3f3906ec	0.72276187
60	0x3f1412d8	0.57841253
61	0xbeef050e	-0.46683544
62	0x3e70f36f	0.23530363
63	0xbe9850f7	-0.2974927
64	0xbee580ef	-0.4482493
65	0xbe7c8242	-0.24659064
66	0x3e66651e	0.2249951
67	0xbe18758a	-0.14888588
68	0x3ece59ae	0.40302795
69	0x3e8d3a1c	0.27583396
70	0xbdd0cbc6	-0.10195117
71	0xbea0cc12	-0.31405693
72	0x3ded72a7	0.11594134
73	0xbf181604	-0.59408593
74	0xbec330e5	-0.3812324
75	0x3f266145	0.6499217
76	0x3e7afeda	0.2451128
77	0x3db605f3	0.088878535
78	0xbf20c7c6	-0.6280483
79	0xbe6a6faa	-0.22894159
80	0xbcdb052e	-0.026735868
81	0x3c38667c	0.011254903
82	0x3e8cadd8	0.27476382
83	0xbe48dd43	-0.19615655
84	0xbe483c1d	-0.19554181
85	0xbf5e695c	-0.86879516
86	0x3f434e04	0.7629092
87	0xbd84e215	-0.06488434
88	0xbf05f08f	-0.5232019
89	0x3e43ac91	0.19108798
90	0x3e169f62	0.14709237
91	0x3f0f80d7	0.5605597
92	0xbdbc194d	-0.09184513
93	0x3ee93bdb	0.4555348
94	0xbd82b814	-0.06382766
95	0x3e9c44b2	0.3052116
96	0x3dde975e	0.10868715
97	0x3e328eb0	0.17437243
98	0x3b8eebb2	0.004361593
99	0xbee102cc	-0.43947446
100	0x3e18e50f	0.14931129
101	0xbed875c4	-0.42277348
102	0x3f06bac7	0.5262875
103	0x3e75e1bd	0.24011894
104	0xbf1fd150	-0.6242876
105	0xbe62bf4e	-0.2214329
106	0xbd91797e	-0.07103251
107	0x3f06f77b	0.52721375
108	0xbeb5ccd0	-0.35507822
109	0x3e408e4c	0.18804282
110	0xbe17d090	-0.14825654
111	0xbe7036a1	-0.2345834
112	0xbe819639	-0.25309923
113	0x3f0327a7	0.5123238
114	0x3dc5c343	0.09656384
115	0xbee8fd1c	-0.45505607
116	0x3f093613	0.53598136
117	0xbd9f8af8	-0.07790178
118	0x3dea3671	0.11436165
119	0x3e66834a	0.2251102
120	0x3f419d79	0.7563091
121	0xbef13b11	-0.47115377
122	0x3d727e02	0.0592022
123	0x3dd13bfc	0.10216519
124	0xbf04732e	-0.5173825
125	0x3e359f97	0.1773666
126	0x3e9cffb9	0.3066385
127	0x3f0de3c9	0.554257
128	0x3e3ccf4b	0.18438451
129	0x3ed79968	0.42109227
130	0xbec6cc89	-0.38827923
131	0xbee091ac	-0.4386114
132	0xbcd75590	-0.026285917
133	0xbe41f578	-0.18941295
134	0xbf2dca6d	-0.67887
135	0x3d0894a2	0.033344872
136	0x3e128074	0.14306813
137	0x3db6b5b7	0.08921378
138	0xbe952c49	-0.2913535
139	0xbf17adff	-0.5924987
140	0xbe94e230	-0.29078817
141	0x3e337482	0.17524913
142	0x3eaad547	0.33365843
143	0xbe861fe3	-0.26196203
144	0xbe656010	-0.22399926
145	0xbe6e17cf	-0.2325127
146	0x3eb30d77	0.3497121
147	0x3bf0b5cd	0.007345891
148	0xbea0f124	-0.31433976
149	0x3c1c42a9	0.009537377
150	0x3dd7deb9	0.10540528
151	0x3e5ff088	0.21869099
152	0x3daba96a	0.083819225
153	0xbe6233d1	-0.22090079
154	0x3e16ab8b	0.14713876
155	0xbe03d680	-0.12874794
156	0x3e8cde13	0.2751318
157	0xbe885a02	-0.2663117
158	0x3e06253d	0.13100143
159	0xbc1403ab	-0.009034078
160	0xbd987069	-0.074433155
161	0xbdfd4a01	-0.12367631
162	0x3d9c02fd	0.076177575
163	0xbe672d22	-0.2257581
164	0xbefd7d3a	-0.49509603
165	0x3e35f599	0.1776947
166	0xbed08f42	-0.40734297
167	0x3e0a212a	0.13489214
168	0x3f0190f4	0.50611806
169	0x3dbd7ac9	0.09251935
170	0xbf3353d3	-0.7004978
171	0xbe8950d9	-0.26819494
172	0xbe6124d2	-0.21986702
173	0xbab175dc	-0.0013539153
174	0x3ec0b6b0	0.3763938
175	0xbe950884	-0.2910806
176	0x3e08958a	0.13338295
177	0x3e87b96f	0.26508662
178	0x3e991ac9	0.29903248
179	0x3e85751e	0.26065916
180	0x3ed01cd3	0.4064699
181	0xbeabb61f	-0.33537385
182	0x3f0856d3	0.53257483
183	0x3e0546d4	0.130153
184	0xbea6061b	-0.32426533
185	0xbf032cbf	-0.5124015
186	0x3f0240c2	0.5088006
187	0xbd0e7891	-0.03478295
188	0x3e402f3c	0.18768018
189	0xbdcd201d	-0.10015891
190	0xbed80802	-0.4219361
191	0xbdc592ad	-0.09647117
192	0x3f2352b7	0.6379809
193	0xbeda9c28	-0.42697263
194	0xbeb17d5a	-0.34665948
195	0x3f0065e9	0.501555
196	0x3ebf2b5c	0.37337768
197	0x3eb50fcf	0.35363623
198	0xbec4558e	-0.38346523
199	0xbe1caa52	-0.15299347
200	0xbde4036e	-0.11133467
201	0xbdc5ae75	-0.09652416
202	0xbe4da40e	-0.20082113
203	0xbd22c6fe	-0.039740555
204	0x3da03522	0.07822634
205	0xbf4ef1d8	-0.80837774
206	0x3f337482	0.7009965
207	0xbdec7ff9	-0.11547846
208	0xbeda59b5	-0.42646566
209	0x3e251d13	0.16124372
210	0xbd548482	-0.05188418
211	0xbdef5477	-0.11686032
212	0x3f009e64	0.50241685
213	0x3e7dafa6	0.24774036
214	0xbdd6b6d5	-0.10484091
215	0x3ed8cf0e	0.4234547
216	0xbbef7f85	-0.0073089027
217	0xbcd5ed35	-0.026114086
218	0xbdf1b3aa	-0.11801846
219	0xbe8712c6	-0.2638151
220	0x3e71b83f	0.2360544
221	0xbee3823d	-0.444353
222	0x3e8733d6	0.26406735
223	0x3d43b47a	0.047779538
224	0xbd852f6f	-0.06503188
225	0xbe3d9a4b	-0.1851589
226	0xbaf2f2ab	-0.0018535455
227	0x3ec81c70	0.39084196
228	0xbe91fffc	-0.28515613
229	0x3e4b7dc4	0.19872195
230	0xbd96b0be	-0.0735793
231	0x3d8f83ab	0.070075355
232	0x3ef90323	0.48635206
233	0x3d8ce1c6	0.06879
234	0xbe765d00	-0.24058914
235	0xbeec13b1	-0.46108773
236	0x3ed3a89f	0.41339585
237	0x3e553f08	0.20824826
238	0x3f017909	0.5057531
239	0xbdf90c85	-0.12160591
240	0x3e37724d	0.17914696
241	0x3e3e5ddf	0.18590496
242	0x3d4372b9	0.04771683
243	0x3e97ea94	0.29671156
244	0xbd247cb3	-0.040157985
245	0xbe2851db	-0.16437475
246	0xbdde2f1b	-0.108488284
247	0xbe1d5a62	-0.1536651
248	0x3dbae7d0	0.09126246
249	0xbd833dd1	-0.06408275
250	0xbe8ca939	-0.27472857
251	0xbdb0a6b9	-0.0862555
252	0xbc73ff8e	-0.014892472
253	0xbc754d17	-0.014971993
254	0xbdc48dda	-0.095973685
255	0x3e436657	0.19082008

lstm.bias_ih_l1 f4 [240]
0	0xbdfd6e43	-0.123745464
1	0x3d54371d	0.051810373
2	0xbe970c4b	-0.29501566
3	0xbeb03197	-0.34412834
4	0xbde3ef16	-0.111295864
5	0xbe378397	-0.17921291
6	0xbe2e0ad0	-0.16996312
7	0x3cfe5e75	0.0310509
8	0x3e25ce25	0.16191919
9	0xbe8a6847	-0.27032682
10	0xbe0924af	-0.133929
11	0xbdc58f83	-0.09646513
12	0xbeddd48d	-0.43326226
13	0xbdf31d3f	-0.118708126
14	0xbe2e6cb9	-0.17033662
15	0xbed1a4ef	-0.40946147
16	0xbf01b131	-0.50661
17	0x3e70597b	0.23471634
18	0xbd16acbc	-0.036785826
19	0xbe47e908	-0.19522488
20	0xbdae5863	-0.08512952
21	0xbe73c427	-0.23805295
22	0xbd4a8a38	-0.049448222
23	0xbecfef65	-0.4061233
24	0xbe451378	-0.19245708
25	0x3e084629	0.13308014
26	0x3d4c726e	0.049913816
27	0xbf628ddf	-0.8849773
28	0xbe3422d5	-0.17591412
29	0xbef067a8	-0.46954083
30	0xbe91ce25	-0.28477588
31	0xbe343c37	-0.17601095
32	0xbe413211	-0.18866755
33	0xbe8320ab	-0.2561086
34	0xbf2655b5	-0.6497453
35	0xbee9944e	-0.4562096
36	0xbe209b07	-0.15684138
37	0xbecd4622	-0.4009257
38	0xbe4cfb22	-0.20017675
39	0xbe284be5	-0.16435201
40	0x3e7084e5	0.23488195
41	0xbe00cad4	-0.12577373
42	0xbf06db77	-0.52678627
43	0xbeaf3b50	-0.3422494
44	0x3ebb2382	0.36550528
45	0xbf0d7f51	-0.55272394
46	0xbddcf291	-0.10788453
47	0x3da9edd9	0.08297319
48	0xbc52f2b8	-0.0128752515
49	0xbeb6bd58	-0.35691333
50	0x3f896b58	1.0735884
51	0xbd85b90a	-0.06529434
52	0xbe8a0ba2	-0.26962
53	0xbeb76dca	-0.3582595
54	0xbc598e29	-0.0132785225
55	0xbbe6ca81	-0.0070431833
56	0xbe33fe37	-0.17577444
57	0xbea9eb0a	-0.33187133
58	0xbe0659f0	-0.13120246
59	0xbe0c34c6	-0.13692006
60	0xbe8ee76e	-0.27910942
61	0x3d9f2209	0.077701636
62	0xbea54c6f	-0.32284877
63	0xbee71174	-0.45130503
64	0xbd9ce6a5	-0.076611795
65	0xbf1ebee5	-0.6201003
66	0xbe6ca86c	-0.23111123
67	0xbe9998e7	-0.29999468
68	0xbba1c089	-0.004936282
69	0xbd97ca2b	-0.07411607
70	0xbd7d14a7	-0.061787274
71	0xbf0bd2c9	-0.5461851
72	0xbea6c012	-0.32568413
73	0xbe1809ab	-0.14847438
74	0xbe2bad55	-0.1676534
75	0xbe8432f8	-0.25820136
76	0xbe6dbe66	-0.23217162
77	0xbda187b6	-0.07887213
78	0xbe2cbbcb	-0.16868512
79	0xbe4c9c94	-0.19981605
80	0xbcbc545f	-0.02298945
81	0xbf2123aa	-0.62945044
82	0xbe1ab137	-0.15106665
83	0xbe67b630	-0.22628093
84	0xbecad4e3	-0.39615545
85	0x3d808a6f	0.06276404
86	0x3d905ea0	0.07049298
87	0xbf273d33	-0.6532776
88	0xbdb89f9e	-0.090148196
89	0xbe15d477	-0.1463183
90	0xbe80e86a	-0.25177318
91	0xbe7d51e7	-0.24738275
92	0xbe53977b	-0.20663254
93	0xbe61fdff	-0.22069548
94	0x3c0830e3	0.008312437
95	0xbd5883eb	-0.05286018
96	0xbde0a01a	-0.10968037
97	0xbd8a9612	-0.06766905
98	0xbf09172d	-0.5355099
99	0x3f0b22c8	0.54349947
100	0xbe6f5bb8	-0.23374832
101	0xbdd8c547	-0.10584503
102	0xbf05bbbd	-0.5223959
103	0xbef5bb0f	-0.47994277
104	0xbdcf75b4	-0.10129872
105	0xbda10949	-0.07863099
106	0xbea4abf8	-0.32162452
107	0xbeb5cdba	-0.3550852
108	0x3e1d8cac	0.15385693
109	0xbf1aa3a7	-0.60405964
110	0xbdff5ee5	-0.124692716
111	0xbdedc56b	-0.1160992
112	0xbf04d29d	-0.5188387
113	0xbf0384ad	-0.5137432
114	0xbeca5dee	-0.39524788
115	0x3e06d960	0.1316886
116	0xbd056033	-0.032562446
117	0xbd8ed3d2	-0.06973995
118	0x3e0f9a44	0.14023691
119	0xbe6cc41d	-0.23121686
120	0xbd81033b	-0.06299444
121	0x3d99ca03	0.07509234
122	0x3d80a65e	0.06281732
123	0x3ca0ed17	0.019644303
124	0x3da52106	0.08062939
125	0x3a3a4590	0.00071057025
126	0xbd1910fc	-0.037369713
127	0xbd3c8d2e	-0.046033077
128	0x3be8a681	0.007099927
129	0x3d4a2e45	0.049360532
130	0x3c132595	0.008981128
131	0x3c81b0b6	0.015831333
132	0x3d82e814	0.06391922
133	0xbc9b435f	-0.018953023
134	0x3dfcf9f8	0.12352365
135	0x3d0794b3	0.033100795
136	0xbdace628	-0.08442336
137	0xbd5d9bbf	-0.05410361
138	0x3d69ec28	0.05710998
139	0x3dba20a5	0.09088258
140	0x3e33cdd7	0.1755899
141	0x3db45735	0.08805696
142	0xbd80b811	-0.06285108
143	0xbd703805	-0.058647174
144	0x3cb99beb	0.022657355
145	0xbc34de02	-0.011039259
146	0xbcfdaf3f	-0.030967353
147	0xbdb5842d	-0.08863101
148	0xbccc3e0c	-0.02493193
149	0xbd1044fc	-0.03522204
150	0x3c50f743	0.012754264
151	0xbd52d327	-0.0514709
152	0x3c1db475	0.009625544
153	0x3af8c8aa	0.0018980701
154	0xbd8c7e38	-0.06860012
155	0xbc7bc296	-0.015366217
156	0xbbae68df	-0.00532256
157	0x3bab772d	0.0052327127
158	0x3d65fb32	0.05614776
159	0xbd683bf5	-0.056697804
160	0x3e2088dd	0.15677209
161	0xbc4dc6bc	-0.012559589
162	0xbde7300c	-0.11288461
163	0xbd4e8e70	-0.050428808
164	0x3da8a659	0.08234853
165	0x3bfce849	0.0077181202
166	0x3d3bee29	0.045881424
167	0x3e2379ae	0.15964386
168	0x3d4043de	0.046939723
169	0xbdca01d7	-0.09863632
170	0xbcfca5c6	-0.030840766
171	0xbda25419	-0.079261966
172	0x3d232743	0.039832365
173	0x39643f1a	0.00021767282
174	0x3c19a33f	0.0093773
175	0x3d192230	0.03738612
176	0xbda8bae3	-0.08238771
177	0xbd920326	-0.07129507
178	0xbdea973b	-0.11454626
179	0xbdd7a1c9	-0.10528905
180	0xbe7e1c2e	-0.24815437
181	0xbbb879aa	-0.005629738
182	0xbeab04af	-0.3340201
183	0xbe3daa28	-0.1852194
184	0xbd94c26b	-0.07263645
185	0xbe1844e0	-0.14870024
186	0xbe85764f	-0.26066825
187	0xb9207408	-0.00015302014
188	0xbcbdd05a	-0.023170639
189	0xbe807603	-0.25090036
190	0xbe004ecf	-0.12530063
191	0xbe089ad0	-0.13340306
192	0xbf09a132	-0.5376159
193	0xbd999a62	-0.07500149
194	0xbeb64083	-0.35596094
195	0xbedef3aa	-0.43545276
196	0xbeeb3949	-0.45942143
197	0x3e5bd51f	0.21468018
198	0xbcc65a65	-0.024213025
199	0xbcce2786	-0.02516533
200	0xbe9af822	-0.30267435
201	0xbe5b96d3	-0.21444254
202	0xbc4e20bb	-0.012581046
203	0xbefb0c9b	-0.49033055
204	0xbe25b7f3	-0.16183452
205	0xbdb158c1	-0.086595066
206	0xbd3b8019	-0.04577646
207	0xbf4f617f	-0.8100814
208	0xbe8dad58	-0.27671313
209	0xbe7b9efd	-0.24572368
210	0xbe8703c5	-0.26370063
211	0xbe851512	-0.25992638
212	0xbc8034f0	-0.015650243
213	0xbe06a784	-0.1314984
214	0xbef0d2d5	-0.47035852
215	0xbea41210	-0.3204503
216	0xbe504d58	-0.20342004
217	0xbec19d5b	-0.37815365
218	0xbe7e0e63	-0.24810176
219	0x3da04bc1	0.07826949
220	0x3e8eb3ae	0.2787146
221	0xbeb2beaa	-0.3491109
222	0xbf05398b	-0.5204093
223	0xbefee4bb	-0.49783882
224	0x3ebbac73	0.36655006
225	0xbefb4648	-0.49077058
226	0xbdef38bd	-0.11680744
227	0x3e267e8f	0.16259216
228	0x3e6e41c9	0.23267283
229	0xbe3c4db9	-0.18389024
230	0x3f8a2619	1.0792876
231	0xbe80ccf1	-0.25156358
232	0xbc8df5de	-0.017329153
233	0xbf0a5d99	-0.5404907
234	0x3e5cd9e9	0.21567501
235	0x3df93b40	0.12169504
236	0xbe64110b	-0.22272126
237	0xbef58be2	-0.47958285
238	0xbde92bc5	-0.113853015
239	0xbc9f7795	-0.0194662
